NLP & Language Understanding/2gram.pth (torch, 56333 bytes, 5 tensors)

embeddings.weight f4 [79, 10]
000000 52 f5 26 be ed be a9 bc 3e 03 d0 3f 14 73 6d be
       -0.1630452 -0.020720923 1.625099 -0.2318843
000010 98 95 ad bf d8 60 09 3f b5 c1 84 3f 3c 67 2a bf
       -1.3561277 0.53663397 1.0371615 -0.66563773
000020 ac 48 df bd f6 bb e5 3e f1 88 17 40 e6 a0 34 3f
       -0.10902533 0.44869965 2.3677332 0.7055801
000030 a3 d6 13 bf 6e d8 50 bf 13 28 30 3f 97 5c 02 be
       -0.57749385 -0.81580245 0.6881115 -0.12730633
000040 48 86 33 be be 52 23 bf 39 64 02 40 1e 1f 30 3f
       -0.17531693 -0.6379813 2.037367 0.6879748
000050 29 b9 a9 bf cf 15 be 3f 0d e4 ee bf bb 70 ba 3d
       -1.3259631 1.4850405 -1.8663346 0.09103533
000060 e7 23 ef bd 2a 76 49 bf 9a 96 26 3e 06 4a f5 3f
       -0.1167677 -0.7869593 0.16268387 1.9163215
000070 55 f4 1b bf e3 dc 8c be c0 e1 05 40 df 43 e8 be
       -0.60919696 -0.27512273 2.0919037 -0.45364282
000080 e0 1f c3 3f 71 0a f7 3f e7 02 0b 3f b4 3c b6 bf
       1.5244102 1.9300061 0.54301304 -1.4237275
000090 a1 29 c6 bf 2f 12 98 3f d6 21 f8 3e 36 d8 e3 3d
       -1.5481454 1.1880549 0.48463315 0.11125223
0000a0 e1 0a fd 3f a6 3b 3a bf 1f ae 90 3f be 31 4c bf
       1.9768945 -0.72747266 1.1303138 -0.797634
0000b0 f6 32 67 3e e6 14 0c bf 68 89 ca 3e 70 f4 92 3f
       0.22578034 -0.5471939 0.39557958 1.1480846
0000c0 97 9b 69 3f 21 ed 70 3f 43 17 c2 3c 28 c8 f0 be
       0.91253036 0.9411183 0.023692733 -0.47027707
0000d0 28 f8 c5 bf e7 f9 14 3f 2f c9 94 bd 88 6d 90 3e
       -1.5466356 0.5819382 -0.07264935 0.28208566
0000e0 24 2c 60 bf a8 88 be 3d 05 8b ec be 30 89 0a 40
       -0.87567353 0.09303409 -0.46199813 2.1646233
0000f0 33 1d 61 be 7a 20 d3 3e 4c 5b 7a bf 00 e2 6a 3d
       -0.21983795 0.41235715 -0.9779556 0.057344437
000100 49 e4 77 3f 32 bf 40 3f 27 f7 bb bf 97 02 43 3f
       0.9683271 0.7529174 -1.46848 0.76175827
000110 36 6e 4c 3f 21 e5 a8 3f 99 6e b5 bf ef 23 d2 bc
       0.7985567 1.3194925 -1.4174377 -0.0256519
000120 9c fd f9 3f 20 bf f1 3e 23 70 0a c0 20 e4 82 be
       1.953052 0.4721613 -2.1630943 -0.2556467
000130 03 5f 43 be 57 79 3b 3e b8 f3 e2 bf 64 b6 54 bf
       -0.19079213 0.18308006 -1.7730627 -0.83090806
000140 b3 ef 6f be 92 9a a1 bf 55 3e 16 3f e6 80 61 3e
       -0.23431282 -1.2625296 0.5868886 0.22021827
000150 f9 36 8e bf 8f 6a 2f c0 ba 39 16 3f 28 00 3e bd
       -1.1110526 -2.7408788 0.58681834 -0.046386868
000160 e9 ff 79 bd f6 d5 05 bf 07 1c e5 bf 3b 6c 8b 3d
       -0.06103507 -0.52279603 -1.7899178 0.06807753
000170 2d 1a 5c bf 84 11 e9 3e 13 e8 e9 bf 49 f6 13 3f
       -0.8597744 0.45521176 -1.8273948 0.57797676
000180 09 68 b4 3f c7 3f 23 bf a4 88 3e 3f 80 75 27 3f
       1.4094249 -0.6376919 0.7442725 0.65413666
000190 e7 27 d2 3c 9e 79 e6 3f 5e 3e e6 bf 33 b7 c9 be
       0.025653793 1.8005865 -1.7987783 -0.39397582
0001a0 a8 01 7d be 85 44 53 3e 12 a7 12 bd d2 9c 5a 3f
       -0.24707663 0.20631607 -0.035803862 0.8539554
0001b0 a1 1a c9 3f 7c 8d f6 be 52 81 60 bf d7 3d d0 bd
       1.5711251 -0.4815482 -0.8769733 -0.10168045
0001c0 e8 a1 72 3f c5 fa 74 3f 44 34 e1 3f 28 47 df bf
       0.947783 0.95695144 1.7594075 -1.744359
0001d0 c2 8b 29 3f 01 51 39 40 7e 22 d8 3f 90 1a d6 3f
       0.6622888 2.895569 1.6885526 1.6726856
0001e0 13 06 1a be 90 20 c2 be d4 e3 1c 3f ed ff e9 be
       -0.1504138 -0.37915468 0.6128514 -0.45703068
0001f0 73 c0 cb be 1f f1 a1 bf fb 94 c8 3e 43 f3 af bf
       -0.39795265 -1.2651709 0.39176163 -1.3746113
000200 93 38 fc be 43 90 fc bd b2 37 56 be 11 ef 8d 3f
       -0.49261913 -0.12332203 -0.20919684 1.1088582
000210 9b 01 b2 be 28 45 a1 3f 42 f4 27 3f e0 7c 11 3f
       -0.3476685 1.259923 0.6560708 0.5683117
000220 b0 a8 9f bf ac f2 5a 3f 9c 93 9e 3e 64 88 2e 3f
       -1.2473354 0.8552654 0.30971992 0.68176866
000230 2c de b1 3e 07 35 ce 3c 28 2a 31 3f e2 c8 b1 be
       0.34739816 0.02517177 0.6920495 -0.34723574
000240 a3 ee d9 3e 9f c9 e0 be 36 71 81 bf 37 0d 01 be
       0.42564878 -0.43903825 -1.0112674 -0.12602697
000250 5e ae e7 3e 57 0d 79 bf 9a 4a 45 bf ba 4e f8 bd
       0.4525022 -0.9728598 -0.7706696 -0.12124391
000260 2a 2a 9f bf e7 35 3f bf 54 71 94 bf 3f 98 c0 bd
       -1.2434742 -0.74691623 -1.1597085 -0.09404039
000270 fd 24 71 3e f0 38 9e 3f 19 b0 8c 3d 46 47 c7 be
       0.23549266 1.2361126 0.068695255 -0.38921565
000280 d5 2d 12 bf b7 64 6c 3f 2c 47 83 3d 6a 6c 98 3e
       -0.57101184 0.9234118 0.06410059 0.29770213
000290 9b 17 ea be ed 5e b0 3f ae c6 09 bf e0 0c de 3e
       -0.45721135 1.3778969 -0.53818786 0.43369198
0002a0 d9 b3 43 3f cc 2c c3 be d4 b4 d6 3f 9c a7 9c 3f
       0.764463 -0.38120115 1.6773934 1.223865
0002b0 33 ca cc 3e 4c 51 cd bf e5 8a 8c 3b aa 90 26 be
       0.39998016 -1.6040435 0.0042890185 -0.16266122
0002c0 a0 7e 85 3f 1d 7e 5d 3f a6 34 8a bf bb 05 34 3f
       1.0429268 0.8652056 -1.0797317 0.70321244
0002d0 25 17 49 40 d8 10 ec 3d 13 f5 7c bf 0b f2 bb 3f
       3.1420376 0.1152665 -0.98811454 1.4683241
0002e0 c1 25 a1 3f 6d 0f 12 bf 31 dc 09 3f f1 c5 d1 bf
       1.2589647 -0.5705479 0.5385161 -1.6388532
0002f0 1d bd 95 be cd 69 79 3f 3e 5a 0e 3f 41 51 65 bf
       -0.29245844 0.97427064 0.5560645 -0.8957711
000300 bb d3 08 3f de 62 4c 3f a8 a7 0d 3e c8 48 da bf
       0.53448075 0.7983836 0.13833487 -1.7053461
000310 74 70 4f bf b5 b5 23 3f 6c 94 54 3e 89 79 c8 3e
       -0.81030965 0.6394914 0.20759743 0.39155224
000320 72 14 02 bf c2 0b 3a be 1d 31 9b bf 96 01 88 bf
       -0.5081245 -0.18168548 -1.2124363 -1.0625484
000330 6c 69 05 c0 06 e4 9b bf 67 5b 8d 3e ee f3 e0 bf
       -2.0845594 -1.2178962 0.27608797 -1.7574441
000340 f2 09 f0 bc 18 df 41 bf d5 b2 43 3f 09 ef 0c 40
       -0.029301617 -0.7573104 0.7644475 2.2020895
000350 3e 7a c1 bf ef a0 49 3e d5 52 83 be bc 0f 0b 3f
       -1.511543 0.19690298 -0.25649133 0.54320884
000360 42 b7 cf 3c e5 02 bb 3e cf 32 ed 3e a1 34 3d bf
       0.025355939 0.36525646 0.46327826 -0.7390843
000370 a3 90 93 bd 8e c0 85 3e 9a 30 ac 3c 76 b1 47 bf
       -0.07205322 0.2612347 0.021019269 -0.7800516
000380 a6 fb ce 3f 35 4a eb bf fc b6 39 bf 48 eb be 3d
       1.6170547 -1.8382021 -0.72544837 0.0932222
000390 30 e9 c0 3f 33 41 28 3e d0 73 d8 3f 19 7b 7d bb
       1.5071163 0.16431122 1.6910343 -0.0038678108
0003a0 3c 6b cc be d4 67 89 bc 21 c5 38 3f 40 f1 bd 3f
       -0.39925563 -0.016773142 0.72175795 1.4839249
0003b0 9b c7 ab bf 33 3f 44 3f 6f 5c 55 3f 42 e0 14 3f
       -1.342029 0.76658934 0.8334417 0.5815469
0003c0 98 9a 4d bf ab 74 db bf c1 24 4d 3f b6 0a 42 bf
       -0.80314016 -1.7144979 0.80134207 -0.75797594
0003d0 7c c1 dc 3f 09 51 45 bf dd a9 94 bf cc df 0e be
       1.7246547 -0.77076775 -1.1614338 -0.13952559
0003e0 e4 58 d3 3e b2 18 93 3e 3b ae 7a 3f 14 26 5c bf
       0.41278756 0.2872978 0.97922105 -0.859956
0003f0 89 cb a7 bf 46 6c a5 bf 90 f1 08 3f ce 79 fd bf
       -1.3108989 -1.2923667 0.53493595 -1.9802797

linear1.weight f4 [128, 20]
000000 c9 19 a2 3e 0b 09 8b 3e 73 c7 6a bc 66 cd a8 be
       0.31660298 0.27155337 -0.014329779 -0.32969207
000010 54 d5 a7 3e a3 65 e1 bd 5b fb 48 3d 5f f2 ac be
       0.32779944 -0.11005714 0.049067836 -0.33778664
000020 6a 10 82 ba 1f a2 3a 3d 8f ae 4f 3e 9b b2 89 3e
       -0.0009923105 0.045564767 0.20281433 0.26894078
000030 2a 91 f0 3d c6 d7 95 3e 76 23 87 3e 3c 6c 00 3e
       0.11746438 0.29266185 0.26394242 0.12541288
000040 a2 bd a2 bd 8d df 63 3e f4 36 13 3e 16 fb 37 3e
       -0.07946326 0.22253247 0.14376432 0.17966875
000050 3b 96 a2 bd 28 d4 08 be 6b d8 7c be 63 38 59 3e
       -0.079388104 -0.13362181 -0.24691932 0.21212916
000060 ed bb 87 3e a6 f3 f1 bd 19 e1 95 bc de ab 82 3e
       0.26510563 -0.118140504 -0.018295811 0.2552175
000070 e0 0d c3 bd be 22 10 be 2c 94 28 3e 2d 2c a0 3e
       -0.09524131 -0.14075753 0.16462773 0.31283703
000080 c5 1a 39 3e 74 74 20 3e ff ae 53 3e ad 74 9e 3e
       0.18076618 0.15669423 0.20672224 0.30948392
000090 f6 18 8a 3e 08 66 1c be c6 f6 0f be 34 24 5d 3e
       0.2697217 -0.15273297 -0.1405898 0.21595842
0000a0 b3 0b 5a bd 54 e7 a2 3e 8d 49 6c 3e e2 c5 3b be
       -0.053233813 0.31817114 0.23074932 -0.18337205
0000b0 98 6d a6 3c 77 0a 6a bc df 1a 86 3e 3e 44 13 bd
       0.02031593 -0.014284722 0.26192376 -0.035953753
0000c0 5c 4d 8d bb 02 94 45 3e c7 13 b5 3e 3f 97 57 3e
       -0.0043122005 0.19294742 0.3536665 0.2105379
0000d0 26 1f 8e be 8c 61 76 bd 75 81 00 3e 44 c6 d0 be
       -0.2775814 -0.06015162 0.12549384 -0.40776265
0000e0 f9 30 2d 3e de 25 9f be 7d 9e 91 bc c3 12 4d 3e
       0.16913213 -0.31083578 -0.017775768 0.20026688
0000f0 3d 86 6f 3e 91 99 6f be a7 9e 86 3c 90 f8 d9 3c
       0.23391052 -0.23398425 0.016433073 0.026607782
000100 15 63 13 be 63 7e 03 3e 9b 02 2b 3e c5 70 0d 3e
       -0.14393266 0.12841181 0.16700213 0.1381255
000110 2b 00 d7 bc 7f 8b 6f be 0c 65 59 3d 11 ac 1f be
       -0.026245197 -0.23393057 0.05307488 -0.15592982
000120 a0 57 ac bd 2c 62 12 3e 7d 44 4a be ff 32 af bc
       -0.08415151 0.14295262 -0.19752689 -0.021386622
000130 e6 c4 ae 3e aa e3 f0 3d 10 85 51 bc eb f6 18 be
       0.34134597 0.117621735 -0.012788072 -0.14937942
000140 bc eb 04 3e 14 17 96 bd ac 8b a2 3b bf e7 a5 be
       0.1298055 -0.073286206 0.004960498 -0.3240337
000150 43 2e 80 3e 34 17 03 3e 0a 79 86 3e 22 4d 1f be
       0.25035295 0.1280182 0.2626422 -0.15556768
000160 1b 0a 75 3e 7e 3d 2d 3d b0 f1 42 3e 91 b5 0b 3e
       0.23929636 0.04229497 0.19037509 0.13643481
000170 9e 20 b5 3d 06 71 d0 3d 80 46 47 3c e5 34 90 3d
       0.08844112 0.101778075 0.012162805 0.07041339
000180 22 0c 2e be be 2b b2 3d e1 b8 dd bd 96 68 24 3e
       -0.16996816 0.086997494 -0.108262785 0.16055521
000190 df ee 8a be 9a 8b a9 be d8 11 d6 3c d3 e8 ac 3e
       -0.2713537 -0.3311432 0.026131555 0.3377138
0001a0 97 cf 9d be e7 89 13 be f5 d5 67 be e1 9d 76 3e
       -0.3082244 -0.14408074 -0.22640212 0.24083664
0001b0 e2 a3 44 3d 9f 79 71 3e 76 1a a0 3e e8 3c 15 be
       0.048007853 0.23581551 0.31270188 -0.14574015
0001c0 ed ff 53 be fb bf ae bd be 0b 18 3e 3b da 16 be
       -0.20703097 -0.08532711 0.1484823 -0.14731686
0001d0 21 63 9c bc 84 c1 e0 bc b0 44 d3 3d 2d ba a2 3d
       -0.019090237 -0.027436025 0.103158355 0.079456665
0001e0 a7 78 ae be b7 89 2a bd c8 c4 17 3e 59 6b ec 3d
       -0.34076425 -0.04163524 0.1482116 0.115439124
0001f0 d9 e6 14 bc a6 af 90 3c b9 94 be 3e bc 01 b1 3e
       -0.0090882415 0.01766188 0.3722284 0.34571636
000200 64 e4 2a 3d 0b c0 d8 3e b7 cd 7d 3c 16 de 48 be
       0.041721717 0.42334017 0.015490941 -0.19615969
000210 7b 6b 58 be 16 8b fc 3d 1b 87 5e be f2 55 75 be
       -0.2113475 0.12331216 -0.21731226 -0.23958567
000220 b8 03 80 3d 94 3d 8a be a1 61 b2 bd e5 63 9b be
       0.06250709 -0.27000105 -0.087100275 -0.3034965
000230 ed 16 c8 bd 5c fe d8 3e 48 67 8d be 7d 50 16 3d
       -0.09769998 0.4238156 -0.2761786 0.036697853
000240 7f 88 4a 3e 02 ac 97 be 37 16 6e 3d 4a 80 a6 3e
       0.19778632 -0.2962342 0.058126654 0.32519752
000250 14 74 e0 bd fa ad ab be dd 0b 94 be e2 ef e9 3e
       -0.1095964 -0.3353117 -0.289153 0.4569083
000260 05 8e fa bd aa 24 9d 3d 76 0f 8e 3d 06 fa 9a 3d
       -0.12234119 0.07673009 0.06936543 0.075672194
000270 e1 2c 81 bd 50 73 b6 3d 5b 02 4a bd 5c 85 54 be
       -0.06307388 0.08908713 -0.049318653 -0.20753998
000280 97 a5 b3 3d ed 40 c8 3d 0d b6 b3 bb 02 17 28 3e
       0.08771818 0.097780086 -0.0054843486 0.16415027
000290 a3 c4 22 bd 49 fa 84 3e d2 5e 4c be ea 1c 10 3d
       -0.03973831 0.25972202 -0.19958046 0.035183825
0002a0 f2 be 83 3e a3 15 93 3e 84 e6 16 3e 3a 98 2f 3d
       0.25731617 0.28727445 0.14736372 0.042869784
0002b0 fe cf 92 3e 39 e0 85 be ac 02 0c be d6 1c 68 3d
       0.2867431 -0.2614763 -0.13672894 0.056668125
0002c0 c3 8d 66 be f3 63 a0 3e 9d 64 32 3e 97 5b 00 be
       -0.22515015 0.31326255 0.17421193 -0.12534939
0002d0 14 64 0d be 76 1c 9d 3c 93 e5 90 3d 8e da 64 3d
       -0.13807708 0.01917861 0.07075038 0.055872492
0002e0 a1 95 89 3e 2d 41 0c be 05 4e 74 be 34 ee 2d be
       0.2687197 -0.13696738 -0.23857887 -0.16985399
0002f0 95 4b 9b 3e ce 31 67 3d 1c 2a 52 3e cb e3 09 be
       0.30331102 0.05644398 0.20523876 -0.13465802
000300 dd bc 48 3e 6d 3b 40 3e a9 5a 44 3e 88 80 cd 3d
       0.19603296 0.18772669 0.19175209 0.10034281
000310 4e 76 80 3e a8 58 c8 bd 1c fb 9e bd 7b d1 0b be
       0.2509026 -0.09782535 -0.07762739 -0.13654129
000320 d1 ce 16 3d a1 2c b9 be 3d 83 99 3e a3 55 1c 3e
       0.03681833 -0.36166862 0.2998294 0.15267043
000330 72 bf 51 3e 86 48 88 be 42 cc 5c 3e 52 e5 ce 3c
       0.20483187 -0.2661783 0.21562293 0.025255833
000340 e5 f3 fe bc 41 30 d7 bc e0 78 70 be f0 0e 9b 3c
       -0.031122157 -0.026268126 -0.2348361 0.018928021
000350 1d 6f 48 3e 9e 67 2b bd 94 fa 87 be d2 c0 5c 3e
       0.19573636 -0.041846864 -0.26558363 0.2155793
000360 d9 f4 65 3e 5a 97 2e 3e ac 99 6c be 5c 97 20 3e
       0.22456683 0.17049924 -0.23105496 0.15682739
000370 e9 ce d3 bd 8d 77 76 3d 5d 8a 71 be 6f 73 29 3d
       -0.10342199 0.060172606 -0.23587938 0.04136985
000380 6e ca 51 bd e7 cd 81 3d eb 6a 35 bd b7 05 84 3e
       -0.051218443 0.06338101 -0.044291418 0.2578561
000390 9c 1e 82 be 56 07 52 be 71 1a 1c 3e b8 16 6e be
       -0.25413978 -0.20510611 0.15244462 -0.23250854
0003a0 6b 45 c3 bd 4c 67 b1 be 90 bf e9 bd 3f 9b 9b be
       -0.09534725 -0.34649122 -0.11413491 -0.3039188
0003b0 d8 20 8d bd dd b2 78 3e 16 86 4b 3e ee d0 85 3e
       -0.0689103 0.24286981 0.19875368 0.26135963
0003c0 5e 2d bc 3e 40 f5 11 be e9 82 e9 3e 24 99 37 3e
       0.36753362 -0.14253712 0.4560769 0.17929512
0003d0 a3 6c 00 be 46 69 67 be 74 66 dc be b3 08 2c be
       -0.12541442 -0.22598752 -0.43046916 -0.16800193
0003e0 7e 26 88 bd e3 0f b7 bd 45 63 86 be 00 31 b2 bd
       -0.06647967 -0.08938577 -0.26247612 -0.08700752
0003f0 21 a2 f8 bc 5d 80 5e 3e 4d 13 87 bd ec 95 a8 bd
       -0.030350747 0.21728654 -0.06595478 -0.0823172

linear1.bias f4 [128]
000000 c6 6c 31 3e af 8a eb bc 0b 4a a4 3e 30 4d be bd
       0.1732665 -0.028752653 0.3208774 -0.09292066
000010 0c e9 2f bd cd ce e0 3d c6 0e c1 3e 3b b8 89 3e
       -0.04294686 0.10976944 0.37706584 0.2689837
000020 ef f1 50 3e db 26 1a bd 75 84 f4 3d 9b d4 45 3e
       0.2040479 -0.03763471 0.11939327 0.19319384
000030 e1 25 46 3e cc 26 75 3e c1 60 da 3d cc 73 61 bd
       0.19350387 0.23940581 0.106629856 -0.055042073
000040 c4 1b f9 3a 31 0e 80 3d d9 a9 0e 3e 74 11 48 3d
       0.0019005467 0.06252707 0.13931979 0.04884477
000050 11 14 ac 3e 32 fa a1 3e 59 05 87 bb 63 e0 87 3c
       0.3360906 0.31636196 -0.0041205105 0.016586488
000060 9c 05 0e 3e 17 42 a0 3e c3 cd cd 3d a4 d4 c3 3e
       0.13869327 0.31300423 0.100490116 0.3824817
000070 5d ae 39 bc 71 99 3d 3d 6c 02 f8 3b 6a 23 97 3e
       -0.011333075 0.04628891 0.007568648 0.29519206
000080 4c e7 1c be 48 51 87 bd 55 0c 59 3d 43 72 55 3d
       -0.15322608 -0.066073 0.052990276 0.05211092
000090 1d d6 23 3e aa 6c 1b be 57 22 1c 3e c0 61 9d bc
       0.15999646 -0.15178171 0.15247475 -0.01921165
0000a0 79 88 7a 3e ee b1 73 3e 7e 73 54 3c 30 28 90 3e
       0.24466123 0.23798344 0.012966989 0.2815566
0000b0 88 1c 24 3e 0c 4c 8a 3d 86 6c e7 3d 3e 63 3b 3d
       0.16026509 0.06752786 0.11299996 0.04574894
0000c0 12 57 ba 3d c4 69 61 3d 3a 94 0b bd 48 7d 78 3e
       0.090986386 0.055032507 -0.034076907 0.24266541
0000d0 ac ee 5b 3e 38 f8 5f bd 0e 59 bc bd 04 10 b3 3e
       0.21477765 -0.05468008 -0.09196673 0.34973156
0000e0 bd 7b ff 3a aa 9a 9e 3e 77 b9 19 be 96 ed 63 3e
       0.0019491833 0.30977374 -0.15012155 0.222586
0000f0 35 20 25 bd 04 e9 58 3d 78 ba 5d 3e 15 b5 83 3e
       -0.04031392 0.052956596 0.21653163 0.25724092
000100 c1 9a bd bd 59 0a 20 be f2 98 50 3e d6 16 aa bd
       -0.092580326 -0.15628947 0.20370844 -0.08305137
000110 68 e4 9b 3e b7 ec 41 3d 16 65 a8 3e 69 85 ff bc
       0.30447698 0.04734489 0.32889622 -0.031191545
000120 e2 1a 46 3e 31 c4 9c 3e 80 f1 27 3d e5 be dc bc
       0.19346192 0.30618432 0.041001797 -0.026946494
000130 30 1f 90 3e 25 56 38 3e 88 da 66 3e 1c 2f 1c be
       0.28148794 0.18001612 0.225443 -0.15252346
000140 6f ea 3a 3e ab cf 8c 3e 08 29 d2 3d 09 73 ce bb
       0.18253492 0.27502188 0.10261732 -0.0063003344
000150 01 53 81 3d 57 59 dd 3d b5 71 31 3e 0d e1 a6 3e
       0.0631466 0.10808056 0.17328532 0.32593575
000160 96 8c 32 3e a1 8e 2f 3e d9 8a d7 bd bd 6c 26 be
       0.17436442 0.17144252 -0.1052453 -0.16252418
000170 3e 79 66 3e d3 07 45 3e ed 86 d4 3d c9 66 11 3e
       0.22507188 0.19241266 0.103772976 0.14199366
000180 7e a3 86 3e c6 82 02 3e 3a f0 04 3d 6b 98 10 3e
       0.2629661 0.12745199 0.03245566 0.14120643
000190 da 64 c8 bc f9 60 48 bd 30 68 e4 3d 57 f9 16 3e
       -0.024462152 -0.048920605 0.11152685 0.14743553
0001a0 3c f7 06 be 0c e8 71 3d b5 05 01 be e2 06 5e 3d
       -0.1318025 0.059059188 -0.12599833 0.054205783
0001b0 74 e5 e7 3c bd 4a a1 bd a3 64 18 bd 64 0b 2f 3e
       0.028307654 -0.07875583 -0.03720535 0.17094189
0001c0 04 2f a8 3b 40 d2 f3 3d 6c 93 79 3e 19 47 d4 bd
       0.005132558 0.119053364 0.24372643 -0.10365123
0001d0 5b 8d d8 3d d3 83 0b be ea 9a ab 3e ab 1c a4 3e
       0.105738364 -0.13624506 0.33516628 0.32053122
0001e0 f6 93 df 3c 92 2e 59 3e 5e f2 a4 3e 06 be a1 3e
       0.027292233 0.21209171 0.3221616 0.3159029
0001f0 93 20 17 be 34 bb e0 3d 91 46 43 3e d7 21 30 be
       -0.1475852 0.10973206 0.19069888 -0.17200409

linear2.weight f4 [79, 128]
000000 05 d9 3b bc 15 19 5d bd 96 60 32 bd fd 6c 54 bc
       -0.011465316 -0.053979 -0.043549143 -0.012965438
000010 9c 19 a4 3c a9 a3 81 3b c5 3e 2d 3d 40 2e da bc
       0.020031743 0.0039562774 0.04229619 -0.026633382
000020 ab 50 b2 bc 11 41 c3 bd d6 2c 07 bd 2e d3 dc 3c
       -0.021766981 -0.09533895 -0.033001743 0.026956167
000030 82 74 cc bd a0 16 a2 bc ed 5e 12 bd 75 b4 ae bd
       -0.099831596 -0.019786179 -0.03573506 -0.08530513
000040 b4 15 f7 3b 72 0a b1 bd b7 0b 35 bd 97 30 87 bd
       0.007540429 -0.086445704 -0.044200625 -0.06601065
000050 05 15 91 3c 8e 67 22 3d 5a c8 8d bd 86 05 cc bc
       0.017710218 0.03964954 -0.0692298 -0.024904978
000060 35 98 3d bd 2a 72 67 bd d7 90 e4 bc 7c a4 68 bd
       -0.046287734 -0.05650536 -0.027901096 -0.05679749
000070 9c 18 a6 bc df 01 c6 bd 3c 92 ab 3b 98 85 2a 3d
       -0.020275407 -0.09668326 0.0052359384 0.04163131
000080 96 89 36 bd 0e 92 ff bc 5f da 42 bd cb 52 0a bc
       -0.044564806 -0.031197574 -0.047571536 -0.008442591
000090 b3 b6 2c bd 63 a9 b9 bd 84 b4 13 bd 0b c6 0d 3d
       -0.042166423 -0.09065511 -0.036060825 0.034612697
0000a0 3d 36 06 bd 9e 2b fd bc 9c e7 2b bc 11 e7 d1 3c
       -0.03276657 -0.030904587 -0.010492232 0.025622876
0000b0 6b 2c c3 3c 99 c7 a6 bd e2 02 8f bd 52 00 5d 3c
       0.023824891 -0.08143539 -0.06982972 0.013488846
0000c0 8c 7c 55 bd 30 7d 13 bc 54 51 92 3d 43 d4 6e 3d
       -0.05212073 -0.009002015 0.07144418 0.058307897
0000d0 90 86 0e bc 69 49 3e 3d 3c 09 f2 bc 3e 2e 19 bb
       -0.008699074 0.046456728 -0.029545419 -0.002337351
0000e0 97 40 0d 3c 70 6e 97 bd 29 37 8b 3d 65 60 af bd
       0.008621356 -0.07394111 0.0679763 -0.08563308
0000f0 c4 04 75 bd b7 e8 82 bd 7f 0c 52 bd 6b fb 82 3d
       -0.059818998 -0.06392043 -0.05128145 0.063956104
000100 73 38 ca 3b 04 8f ae 3c 96 49 2f bd 34 a0 93 bc
       0.00617128 0.02130843 -0.042794786 -0.018020727
000110 f9 7c 22 3c 0a fe 85 bd 72 66 88 bd fc 55 57 3d
       0.009917491 -0.06542595 -0.06660165 0.052572235
000120 d9 8f 91 bd b2 6b 0d 3d ac de 8f 3d 7e 94 19 3c
       -0.07107515 0.034526534 0.07024893 0.009373782
000130 3d 61 59 3d c2 18 47 3b 8e 23 ab bc 67 ea 84 3d
       0.05307125 0.0030379747 -0.020890977 0.06490021
000140 37 a3 31 3d a7 af bb bd f6 8e 83 bd e8 3a 9e bb
       0.043368544 -0.091643624 -0.06423752 -0.0048287995
000150 2e 3e cd bd 9d 14 f8 bc dc 68 a5 bd 12 52 19 bb
       -0.100216255 -0.030283267 -0.08076641 -0.0023394865
000160 cb af c0 bd 53 e3 41 bd 04 1e 81 3d 42 ee 12 bd
       -0.0940853 -0.047335934 0.06304553 -0.03587175
000170 b2 8c 1f 3d f1 ec 60 bc 49 19 b7 bd b3 24 87 bd
       0.038952537 -0.013728366 -0.0894037 -0.06598797
000180 50 c1 ec bd 2e 73 d3 bc 38 63 c4 bd 8a cc cd bd
       -0.11560309 -0.025811758 -0.09589237 -0.10048778
000190 da fb 0f bd 0a 74 74 bd 10 e7 08 bd 99 bf 1a 3d
       -0.035152294 -0.059680976 -0.033423483 0.037780378
0001a0 e0 03 7f 3d 83 16 f6 bc 31 c6 b7 bd d1 88 13 3d
       0.062259555 -0.030040031 -0.08973349 0.03601915
0001b0 b6 a1 ca 3a 69 3d b0 3c b1 94 b2 bd e5 7f 0c 3d
       0.001545957 0.021513658 -0.08719767 0.034301657
0001c0 d0 65 14 3d d3 eb 09 bd 65 98 e6 bd 3d 29 85 bd
       0.03622991 -0.033672165 -0.11259536 -0.06502006
0001d0 00 3e 2c bd 24 a3 ae 3c e6 3e b2 bd 3d 53 ab bd
       -0.042051315 0.021318026 -0.08703403 -0.08365486
0001e0 74 6f 0d 3d f3 14 c8 bd c2 34 6b bd 6c d8 17 3d
       0.034530118 -0.09769621 -0.05742336 0.03707163
0001f0 b0 a0 7f bd 52 f9 6d bc 36 c0 b4 bc 83 13 9e bd
       -0.062409103 -0.014524775 -0.02206431 -0.07718565
000200 cf b7 83 be 01 cf 1b be 0f a0 80 be 35 2e 8c 3d
       -0.25726172 -0.15215684 -0.25122115 0.06844751
000210 50 d7 03 be 92 bb 9f 3e 1c 1f 9b be 46 8d 26 3d
       -0.12875104 0.31197792 -0.30297172 0.040662073
000220 2c d8 2f 3e 47 6e 27 bc 95 eb a5 bc f5 d3 48 bc
       0.17172307 -0.010219163 -0.020253936 -0.012257566
000230 15 e2 d3 3e 5f cb 53 bd 91 39 5c 3e 87 21 9c 3c
       0.41383424 -0.05170762 0.21506335 0.019058956
000240 2f c7 65 be 3c 91 10 be 75 28 f8 3d 01 1e 7f 3e
       -0.22439264 -0.14117903 0.121170916 0.2491379
000250 e0 ca 43 be 33 40 92 3d e3 4f 40 be b4 a4 f3 bd
       -0.1912036 0.07141151 -0.18780474 -0.11896649
000260 3b 51 cb 3d ba f6 47 3e 1a 49 7e 3e 99 fa 00 3f
       0.09927603 0.19527712 0.24832574 0.5038238
000270 b7 cd 11 be b1 31 84 3c b1 4a bd bd 78 00 32 be
       -0.1423863 0.016136976 -0.09242762 -0.17382991
000280 ab 20 be bd fc 5c ca 3d fe 00 bb bd 1a a9 f6 3d
       -0.09283575 0.098810166 -0.091310486 0.12043972
000290 69 e3 33 3d 9b b8 96 bc df a1 17 be 0f 92 96 bd
       0.043918047 -0.018398574 -0.14807843 -0.07352077
0002a0 58 3f 68 3d 5b 83 03 3d e9 0a f9 3d bd b7 e4 bd
       0.056701034 0.032107692 0.12160284 -0.11167858
0002b0 ee 75 08 be 2c 52 87 3d bd 2f 88 3d 0d 40 8a 3c
       -0.13326237 0.0660747 0.0664973 0.016876245
0002c0 fc d1 27 be 22 13 ce bd db 6a d5 bb 32 f7 5a be
       -0.16388696 -0.10062243 -0.0065129823 -0.2138336
0002d0 4e d6 c3 3c d2 d9 64 be 6e 70 e3 bd 8a dd c1 3d
       0.0239059 -0.22348717 -0.11105429 0.09466083
0002e0 0b b3 91 3d 1d da c2 bb 60 88 c4 bd f3 d9 7a bc
       0.07114228 -0.0059464113 -0.09596324 -0.015310752
0002f0 b0 8d 2a 3d ee c2 3d bd 34 11 22 3e f6 e1 87 be
       0.04163903 -0.046328478 0.15826875 -0.26539582
000300 54 d8 3c 3d 29 19 8e bc 24 11 24 be 20 f7 71 3e
       0.046104744 -0.017345982 -0.16022164 0.23629427
000310 d1 d5 b7 3d 72 0f 21 be d9 51 94 3e bc 5f 92 3c
       0.08976329 -0.15728548 0.28968695 0.017867915
000320 d4 4a 53 be 54 bf 10 be 4a ab 0c be da 47 fe bc
       -0.20634013 -0.14135486 -0.13737217 -0.03104012
000330 46 d7 58 be 3a 7c d0 ba 41 35 cc bd 6e 77 41 3d
       -0.2117587 -0.0015906163 -0.09971095 0.047233038
000340 41 ff b7 bd 24 66 cd 3d 95 1f 18 3e f5 47 0b be
       -0.08984233 0.100292474 0.14855798 -0.13601668
000350 73 f9 43 be 56 36 a5 3e 0e 3b 38 3d 74 82 50 3e
       -0.19138126 0.32268018 0.044978194 0.20362264
000360 c0 fe 44 3d 86 09 d7 3d fa fb 0e 3e 51 0e aa bd
       0.04809451 0.10499863 0.13963309 -0.08303512
000370 37 4b 9d bc 1f e0 99 3c 5d c7 82 be 5e c9 a5 bd
       -0.019200904 0.018783627 -0.25542727 -0.08095048
000380 e4 a5 89 bd b5 1f 32 bd 77 a0 6b bd ac a1 82 be
       -0.06721094 -0.04348727 -0.057526078 -0.2551397
000390 09 20 f8 3d b0 d1 4b 3d 49 2b 5e bc 8f a3 87 bd
       0.12115485 0.04976052 -0.013560125 -0.06622993
0003a0 24 bb 27 3e 9f ad 7a bd 73 5c af 3d 95 51 fa 3b
       0.16379982 -0.061200734 0.08562555 0.00763912
0003b0 7b bb d8 3e 1c 0f da bd 7f f5 4e 3b 24 49 1a bd
       0.42330536 -0.10647413 0.0031579433 -0.03766741
0003c0 c2 b0 29 3e a9 79 3f be 06 ca 98 bd 8f b7 98 3e
       0.16571334 -0.18698753 -0.07460408 0.29827544
0003d0 ba dc 65 3e c7 37 55 3c 8e c8 4a 3d 5b 1b 64 bd
       0.22447482 0.013013787 0.04950767 -0.05569015
0003e0 6a d7 35 3d 1a 73 10 3d 5f 89 d8 3d 8e 89 8d 3d
       0.044394888 0.03526602 0.105730765 0.06911002
0003f0 59 b7 0a 3e 6c 6b fa bd 70 31 f7 bd 58 64 30 bc
       0.13546504 -0.1222752 -0.12069976 -0.010766111

linear2.bias f4 [79]
000000 6f de 1a be 45 a5 7c 3b 65 cf 89 3d 4a 96 13 3e
       -0.15123914 0.0038550657 0.067290105 0.144128
000010 b9 d3 98 bc 25 1e 81 3d eb d9 be bd 8a 9f 27 bd
       -0.018655645 0.06304578 -0.09318908 -0.040923633
000020 36 46 9c 3d 3a b1 fb bd ff a1 e8 3a ba fd 45 3c
       0.07630579 -0.12289663 0.0017748474 0.012084419
000030 3b 74 bb 3d 8c 44 6f 3c 0c 75 f7 3d 39 42 63 3d
       0.091530286 0.014603745 0.12082872 0.055483077
000040 60 ce 06 be 78 0c b5 3d e0 5a b4 bd ba 47 0f bd
       -0.13164663 0.08840269 -0.088063955 -0.034980513
000050 80 25 99 3d 33 d7 03 3d ed ad 87 3d 34 94 b5 bc
       0.07477856 0.03218765 0.066249706 -0.022165395
000060 84 1e f6 ba 61 11 93 3d 2d 25 c0 bd 11 dc 9e 3d
       -0.0018777405 0.07181049 -0.09382091 0.07756818
000070 8d 8a a8 3d ae 2b c9 3d ef 09 53 3d 15 0b bf 3c
       0.082295515 0.09822784 0.051523145 0.023320714
000080 ce 3c a3 3d 63 82 bf bc c1 8a 88 bc c6 af f8 3d
       0.07970582 -0.023377603 -0.016667726 0.12142901
000090 ae 3e 10 3e 9d 00 52 3d af a2 11 3e 45 52 5e 3b
       0.1408641 0.051270116 0.14222215 0.0033923548
0000a0 d8 9a 62 3b 3b a9 64 3d ad 61 ef 3c ee b2 b7 3d
       0.0034577157 0.055825453 0.02922138 0.08969675
0000b0 c7 10 1b be 05 2d fb bc 1f c8 be bd 0e 3b 87 ba
       -0.15143119 -0.030661115 -0.09315514 -0.0010317282
0000c0 ff 7e 3c bd 86 a0 a1 3d 3f 5d 03 bd c5 ae 04 be
       -0.04601955 0.078919455 -0.03207135 -0.12957294
0000d0 09 3a b5 bd 86 08 c1 3c d7 0c 43 3d a8 98 f5 3d
       -0.0884896 0.023563635 0.047619667 0.119920075
0000e0 c4 48 e4 3c b9 6e 25 3d 99 53 53 3d a0 5f 76 bd
       0.027866729 0.040388796 0.051593397 -0.06014979
0000f0 6d 98 c4 3b b3 66 5a bd 45 37 81 bd 4a 15 38 bd
       0.005999616 -0.053320598 -0.0630937 -0.044942178
000100 4a 4c 52 bc 96 03 9e 3b 25 8b 44 3c e5 e3 29 3d
       -0.012835572 0.004822205 0.011996065 0.041477103
000110 b9 41 25 be b9 64 83 bd ba f7 f8 3d f4 a1 05 be
       -0.16138352 -0.06415696 0.12156625 -0.13050061
000120 c9 cb 9e 3c aa bc 02 bd 9e 6a 94 3d c6 5c 36 bd
       0.019384282 -0.031918205 0.07246898 -0.04452207
000130 f1 25 f7 bb 96 24 70 bd 2a 47 21 3d
       -0.0075423648 -0.05862864 0.039374508
