NLP & Language Understanding/4gram.pth (torch, 66573 bytes, 5 tensors)

embeddings.weight f4 [79, 10]
00000000: 6bd1 03c0 385f 483f 49f1 d23d c511 483d
00000010: d41b 0c3f f9fc 353f d1ba 983f e0cb 47bf
00000020: 2ef7 72be 236f b63d 8162 d1bf 39d7 cdbf
00000030: a2d1 803f 9860 8e3f 516e 9e3f 9d76 bf3e
00000040: 3be7 893e bbfe fc3e b730 1140 bab1 413e
00000050: d218 8fbf f5ca 0c40 12a6 a03e efa4 1340
00000060: 14c3 2e3e ced3 193f 3233 f43e 0ed2 fcbf
00000070: 5947 183f 8593 5abf 2b3f c23f 88ac 233f
00000080: ed61 82be e299 8abf 3986 88be 3b51 a23e
00000090: 4dac 05c0 4ec5 d0be 47b2 c33e 066d de3f
000000a0: 5b29 e9bd 59e6 873f fb41 0440 b27f cfbf
000000b0: 28a6 4f3f 098f d43f cffa a13e 5a5f cb3f
000000c0: 4301 65be a46e 18bf 52ac 193f c77b ac3f
000000d0: 383b e3be 0cdc 053f b2b0 22be 1424 c23f
000000e0: 2fbc ea3f 247c e43e 04f5 4d40 e8fe 9d3f
000000f0: 724c 27bf d21a 1040 23f4 2340 6850 50be
00000100: 2914 a1bf 7fad 6dbe a214 a53d 533f 07be
00000110: 1901 813f 7566 fbbe 921e cbbf 43ba e43f
00000120: 999d 6cbf 85ac 96bf a595 0cbf 3e63 2d40
00000130: fe8d 8abf 5ae3 1d3e e818 64bf ee6c 063f
00000140: 5e6b 463e 5bdf a33f efab 1f3f 7fe5 cb3e
00000150: 5196 cbbd 84a4 25bf d75f 863f bdcd c7bf
00000160: 4c3d 4abf f19c 84bd e253 843f a304 94bd
00000170: 6d00 723e 47c5 cfbf a251 873f 53eb 21bf
00000180: 5502 5a3f 75c0 3f3f e132 413f 3182 60be
00000190: 4375 d03e 8cb0 48bf 5bd6 cabf 0379 0dc0
000001a0: cd8d 0cbe c663 bb3e df04 37c0 8023 d53e
000001b0: 8d08 833e ef9e 8d3e d794 813e b585 77bf
000001c0: f482 313f 6b4b 883f bba8 a73d 2105 b63f
000001d0: 89e5 1abf d01a 65bf 4b13 a23f 6cb2 c83e
000001e0: 39ec d83e bd2e aabe b641 75bf f2c3 7bbf
000001f0: 4a5e 4fbf bb0d 9b3e e355 843e 47b3 3bbf
00000200: 5757 9e3f 4f75 de3f 8bc9 903f 0891 903f
00000210: db1d bebe db2f bf3e 14a5 243d 1815 b5bf
00000220: 160c adbf a655 403f 04dd a8be 831d 153f
00000230: 0461 86be 150b 46bf 3d10 82be 4cae 163f
00000240: 804e 35bf eae3 de3e 0c0b 1c3e 2557 bd3e
00000250: ffcc e6be 0df1 b13e fd57 b0be e3e7 1b3e
00000260: 45ad a9bf 2e97 58bf f0fc 07bf cd7c 0fc0
00000270: 0162 903e 467b 84bd 9d74 aa3e f5bb 45bf
00000280: 312e 03c0 aaad a8be 7cbb 63bf 8e64 04be
00000290: 5144 853d eb33 c23f 8ad6 9abf 7881 01be
000002a0: 036c 9cbf d1fe fdbe 3233 5e3f 1d7c 4f3f
000002b0: c3f7 993f f0d9 6abf a86d bd3e 4949 8b3f
000002c0: b1d8 89be 7be4 3cbf 0cd8 b4bf aa94 19c0
000002d0: e67c 643f c94e 8c3e 3c80 b93f d045 763f
000002e0: dc74 adbf 16dd d93f 15b3 12bf df2a 223f
000002f0: 7ef0 863f 42ed 34bf 2660 b73f c5fe 3bbf
00000300: 812e 7bbf aa42 fc3f abb0 9d3e ade4 a93f
00000310: b826 08bf d838 a6bf d684 71bf e596 89be
00000320: 9d64 81bf 9bfd 9f3e e10e f33f d3b5 f5be
00000330: 7c20 50bf 9495 03c0 f4f5 533d 852c a23f
00000340: 8499 edbf 1307 7d3f a3f7 12be aeb6 debe
00000350: 78f4 643d 52dd 8dbf 1ddb a13d 27ee 9c3e
00000360: fe61 c3bf 0afb bc3e 18d5 8dbf c7a0 6dbf
00000370: 3f63 543f 0dac 5a3f 1dc2 eabe c31c 0440
00000380: c492 d03f 3fcf 01bf dabe e9be b8db 503f
00000390: e5ed ea3e 3df5 1240 3f7e c93e 659e f6bd
000003a0: 0f58 943f ee85 6dbf eb68 4b3c 9490 483f
000003b0: 0a8b 9fbe eb5b 06bf f20b b9bf ce07 47bf
000003c0: 830e a9be 9c95 f43e 31bf ab3e 40ef 20bf
000003d0: d378 69bf 28b7 6fbe 4269 42bf db49 5fbf
000003e0: 0c2f aebf c4ea 943f f0d1 c3bf 6a1d 15bf
000003f0: 095a a03e 6993 cc3c cee0 053e b2bc 79be
-2.0596569 0.7827029 0.10299928 0.04884507 0.5472996 0.7108913 1.1932012 -0.78045464
-0.23727104 0.089079164 -1.6358186 -1.6081306 1.0063975 1.1123228 1.2377416 0.37395182
0.26934227 0.49413094 2.2685983 0.18915454 -1.117945 2.1998875 0.31376702 2.3069417
0.17066604 0.60088813 0.4769531 -1.9751604 0.5948387 -0.85381347 1.5175527 0.63935137
-0.25465336 -1.0828211 -0.26664904 0.317026 -2.0886414 -0.40775532 0.38221952 1.7377021
-0.11384841 1.0617172 2.0665271 -1.6210845 0.8111291 1.6606151 0.31636664 1.5888474
-0.22363763 -0.59543824 0.60028565 1.3475274 -0.44381118 0.5228889 -0.15887716 1.516726
1.8338679 0.44625962 3.2180796 1.2343416 -0.6535102 2.251637 2.561776 -0.20343173
-1.2584277 -0.23210715 0.08060576 -0.1320775 1.007846 -0.49101606 -1.5868704 1.7869343
-0.92427975 -1.1771399 -0.5491584 2.7091823 -1.0824583 0.15418759 -0.89100504 0.52509964
0.19376895 1.2802538 0.62371725 0.3982353 -0.0994078 -0.64704156 1.0497998 -1.5609661
-0.7899978 -0.06475247 1.0338099 -0.07227447 0.23632975 -1.6232079 1.0571787 -0.632497
0.8515981 0.7490304 0.7546826 -0.21924664 0.40714464 -0.7839439 -1.5846666 -2.210511
-0.13725968 0.3659956 -2.8596723 0.41628647 0.2559246 0.2766032 0.25308868 -0.96688396
0.69340444 1.0648016 0.0818648 1.4220315 -0.6050649 -0.8949404 1.2662138 0.39198625
0.42367724 -0.33238783 -0.9580339 -0.98345864 -0.8100325 0.30283913 0.25846776 -0.7332043
1.2370404 1.737955 1.1311506 1.129426 -0.37132153 0.37341198 0.040196493 -1.4147062
-1.3519313 0.7513069 -0.32981122 0.58248156 -0.26245892 -0.7736066 -0.25403014 0.58859706
-0.70822906 0.4353326 0.15238589 0.36980549 -0.45078275 0.3475422 -0.3444213 0.15225177
-1.3256003 -0.8460568 -0.53120327 -2.2419922 0.2819977 -0.06468825 0.33292094 -0.77239925
-2.0496943 -0.32944995 -0.88957953 -0.12928984 0.06507171 1.5172094 -1.2096722 -0.12647045
-1.2220463 -0.49608472 0.8679687 0.81048757 1.2028736 -0.91738796 0.36997724 1.088174
-0.26923135 -0.73786134 -1.4128432 -2.3996987 0.8925308 0.27403858 1.4492259 0.96200275
-1.3551288 1.7020595 -0.5730451 0.63346666 1.0542142 -0.70674527 1.4326217 -0.7343562
-0.98117834 1.9707844 0.3079885 1.3272911 -0.5318408 -1.2986097 -0.94343317 -0.26872936
-1.010883 0.31248173 1.8988916 -0.47990283 -0.8129957 -2.0560045 0.05174823 1.2669836
-1.8562474 0.9883892 -0.14352278 -0.4349875 0.055897206 -1.1083167 0.07903121 0.30650446
-1.526428 0.36910278 -1.1080656 -0.9282345 0.8296394 0.8541878 -0.45851222 2.0642555
1.6294789 -0.5070686 -0.4565342 0.81585264 0.45884624 2.2962182 0.3935413 -0.1204193
1.1589373 -0.92782485 0.012415151 0.7834561 -0.31160766 -0.52484006 -1.445677 -0.77746284
-0.33018884 0.47770393 0.33544305 -0.62865067 -0.9119999 -0.23409712 -0.7594186 -0.8722207
-1.3608108 1.1634145 -1.5298443 -0.5824801 0.3131869 0.024972634 0.13074037 -0.24388388

linear1.weight f4 [128, 40]
00000000: a471 a7be 0879 bcbd cfbb 4fbc 13fa 33bd
00000010: 0564 803d 9b03 303e 92b5 9ebd f1df c93c
00000020: 062e 053d 912f b8bc 0c29 bd39 f5a2 44bd
00000030: 56df a43e eeca 27bd 544c 1a3e ea6d b5bd
00000040: d730 26be dfe8 86bd a9f8 ad3e 6472 713d
00000050: dad3 9d3c 27a3 813e 07fc fe3d df45 47be
00000060: cb60 1f3e 5666 e23d 797c cd3d 1192 2b3d
00000070: 7745 e1bd 24b4 15be e29d 7b3e f6fe df3d
00000080: 8112 0bbd 30b2 083e 800a 123e aeae 5bbe
00000090: 9b77 b6bc c357 6c3d aaf3 143e 8dd8 c7bd
000000a0: 9240 1b3d f92d 3b3c 873a 6bbd 47c4 20be
000000b0: 1633 9b3b e422 2b3e 7447 93be c7af 763d
000000c0: 3ac4 5e3e 6cb5 40be 7fa0 583d cad5 16be
000000d0: ca9d 663d e0ec 5e3e 7209 90bc f4c8 183e
000000e0: 7890 853b e0f7 0c3d 7678 213e 7902 303d
000000f0: d721 59bd d870 8b3d edfd eb3d 6500 83be
00000100: 6220 903d bb54 0c3e 7502 c9bd 2ed9 c1bd
00000110: 83d0 60bd 6c26 c83d 8a8e e6bd 3795 423d
00000120: d8bb 2a3e 871e 05be ccca ac3c 0095 023e
00000130: cfb2 8dbd 0418 ad3d 6b65 8dbd b9a2 373e
00000140: d1ea 00be 0f4b 5a3c a768 4abc 0fa2 1a3e
00000150: 4eb8 debd f293 f23c 8be7 393e dd7a 36be
00000160: be9e b3bd 2b24 133e 0715 be3c 335d 1f3d
00000170: 5fb4 3fbe 3b69 c8bd 6064 4d3e 9bac 3fbe
00000180: fe08 89be 34e4 dfbb 702c 333c 3565 4c3e
00000190: 4c36 74be a63e 3bbe adb7 653c 1775 543e
000001a0: 7569 c0bc 18a8 3d3e 4776 a23d c199 16be
000001b0: 65f0 96bc bf73 aebc 8121 a7bd d474 09be
000001c0: b590 02be 1f52 06be 6b1d 253e 3b19 873d
000001d0: 284b bebc 6b13 89bc 6898 b3bd 5926 73bc
000001e0: 60a0 86be 287a 7ebe e1f5 a43e 0493 143e
000001f0: a9cf 0d3e 50c0 3ebe 0bc7 f8ba 513f 49be
00000200: ece6 5c3e 8580 e23c 5509 863e 3b8b 603d
00000210: d758 40be 64b5 05be bef9 5dbd a703 89be
00000220: bc77 23bd 8dbf 20bd 8cd9 86bd 1d98 363e
00000230: 936c 8dbe b16c 393e 846f eb3c a041 28be
00000240: df4b dcbd da75 09bd ed65 d8bd cc3f 783d
00000250: 6fd2 56be ac2c ffbd 817d bebd ac08 b7bc
00000260: 0492 93be 3c41 01be 1d4c c5bd 75f0 633e
00000270: b49c 04be 1a59 3b3c 4865 c93d 0a4e 80bd
00000280: 91b0 13bc 6267 343e 4870 b53d ba6e 003e
00000290: 24a6 23be d754 843e 9fa2 4e3d c688 3a3e
000002a0: 8968 c83c bc8d 5a3e 08a6 b5bc f163 27be
000002b0: fa87 1dbc fec4 fdbc 2d20 9a3d 6ac5 9a3d
000002c0: 21cf 07bd 2161 b9bd bedc bfbc 05da 44be
000002d0: 7183 9abd cc9e a33d 668f 38bd 163c 0bbd
000002e0: fdb4 67be a89d 1d3e b6c0 9ebe 8ae9 b3bd
000002f0: e936 25bd a39a 323e 6182 a4bd c7c3 89be
00000300: a17e 56bd 4c77 9fbc 508b 913e 8fe8 053e
00000310: 7cac 7e3e 175c 3f3e a434 ba3c d394 93bd
00000320: bc88 34be 32f2 133e c208 9a3d 1beb f8bb
00000330: 9d17 50bd 5ec4 8dbd 54c7 643e 0505 d73d
00000340: 6b45 b33b a720 303e 4356 71be f6e6 d43d
00000350: f45c 80bd 62a6 f1bd 8bdd 733e de9a 3ebe
00000360: b412 f53d 8ec0 5ebe 351f babd 15e8 513e
00000370: 041b 89be 6889 cebd b66c 013e f431 19bd
00000380: fbfd 0b3d f963 18be 2a0c 253e f971 38be
00000390: c40d 29be 509a 853e 891d bcbd 28a1 79be
000003a0: 7d57 d2bc bba3 b7bc 0c4c 73be 4ce9 c4bd
000003b0: 9630 413e fc68 363e 1128 e13d 9236 e13c
000003c0: 94a4 f13d 641e 2abe 1a6f d73d 1aa8 243e
000003d0: 6a37 2dbd 01cf b2b8 bcea 433c 0c71 493e
000003e0: b05a 5b3e a1dd 33be 14bf 863d 7473 143d
000003f0: a8fe d7bd 69a2 2c3e 33da 753e e740 1ebe
-0.32703888 -0.092027724 -0.012679054 -0.04393966 0.06269077 0.17188875 -0.077494755 0.024642916
0.032514594 -0.022483619 0.00036079471 -0.04800697 0.32201642 -0.040965013 0.1506818 -0.08858855
-0.16229568 -0.065873854 0.33978775 0.058946982 0.019266058 0.25319788 0.12450414 -0.19460247
0.15564267 0.11054675 0.10033507 0.041887347 -0.109995775 -0.146195 0.24571946 0.10937302
-0.033953194 0.13349223 0.14261818 -0.21453354 -0.02227383 0.057700884 0.14546075 -0.09758101
0.037903376 0.011424535 -0.057428863 -0.15699874 0.0047363145 0.16712528 -0.28765452 0.060226228
0.21754542 -0.18819207 0.052887436 -0.14729992 0.056302823 0.21770048 -0.017582629 0.14920408
0.00407606 0.03441608 0.15768608 0.042971108 -0.053010788 0.068086326 0.11523042 -0.25586239
0.070374265 0.13704197 -0.09814922 -0.09465252 -0.054886352 0.097729534 -0.11257656 0.047505584
0.16673219 -0.12999927 0.021092795 0.12752151 -0.06918871 0.08451846 -0.069041096 0.17933168
-0.12589575 0.013323559 -0.012354053 0.15100883 -0.10874997 0.029611561 0.18154733 -0.17820306
-0.08770512 0.14369266 0.023203386 0.03890724 -0.1872115 -0.09785696 0.20057821 -0.18718188
-0.26764673 -0.006832624 0.010935888 0.19960482 -0.23848838 -0.18285617 0.0140208425 0.20747791
-0.023487786 0.18521154 0.07932716 -0.1470709 -0.018425176 -0.021295426 -0.08160687 -0.13423473
-0.12750514 -0.13117264 0.16124503 0.06596609 -0.023229197 -0.016732892 -0.087693036 -0.014840686
-0.2629423 -0.24851286 0.3221884 0.14509207 0.13848747 -0.18628049 -0.0018980218 -0.1965306
0.21572465 0.027649174 0.26178995 0.05482028 -0.1878389 -0.13057476 -0.05419325 -0.267606
-0.03990911 -0.039245177 -0.065844625 0.17831464 -0.27621898 0.18107869 0.028739698 -0.16431284
-0.10756659 -0.033559658 -0.10566316 0.060607716 -0.20978712 -0.12459692 -0.09301282 -0.022343002
-0.2882234 -0.12622541 -0.09633658 0.22259696 -0.12950402 0.011434818 0.09833771 -0.06264885
-0.009014265 0.17617562 0.088593066 0.12542239 -0.15981346 0.25845978 0.050448056 0.18216237
0.024463909 0.2134313 -0.022173896 -0.16346718 -0.009614939 -0.030977722 0.07525668 0.07557185
-0.033156518 -0.09051729 -0.023420688 -0.19223793 -0.07544602 0.079892725 -0.04505863 -0.03399285
-0.22627635 0.15392172 -0.31006402 -0.087847784 -0.04033557 0.17441802 -0.0803268 -0.2690718
-0.052366856 -0.019466065 0.284266 0.13076995 0.24870485 0.18687473 0.02273018 -0.0720612
-0.17630285 0.14447859 0.07521202 -0.007596386 -0.05080377 -0.0692222 0.22341663 0.10499004
0.0054709218 0.17199956 -0.23568062 0.10395615 -0.062677294 -0.11799313 0.2381498 -0.18613765
0.11966458 -0.21753141 -0.090879835 0.20498689 -0.26778424 -0.10084802 0.12639126 -0.037401155
0.03417776 -0.14881887 0.16117921 -0.18012227 -0.16509157 0.26094294 -0.09185321 -0.24377882
-0.025676483 -0.02241694 -0.23759478 -0.0961481 0.1886619 0.17813486 0.1099397 0.027491841
0.11798969 -0.16613156 0.10519238 0.1607975 -0.042289175 -8.526259e-05 0.0119578205 0.1967203
0.21421313 -0.17565013 0.06579414 0.036242917 -0.10546619 0.1685883 0.24009018 -0.15454446

linear1.bias f4 [128]
00000000: c5dd 9f3e 3850 483d 4f23 0e3e 3e46 673e
00000010: e757 6d3e c3d6 733e cc86 dfbb 2314 343e
00000020: ec3e bf3b 3537 073e a27f 20bd 3d22 2b3e
00000030: a190 6f3e 6e3b e93d 0b5a 84bd 16dc 93bd
00000040: 473b 373e 4ceb 3cbd d27e 023e 9776 a73e
00000050: 927a bd3d 010a a83e 5d87 b23d 8439 cd3d
00000060: 1079 22bd 40bd 853e 832c 943e 79a6 523e
00000070: 206c 263e 35c6 623e 6f2a 2e3e 3e22 9c3c
00000080: 0d77 58bd 6579 36bd 6752 11bc 7a3f 8a3e
00000090: adf7 033e 388a 503e 8dc9 223e 5a22 59bd
000000a0: 4f1f 58bd 9284 153e 9173 b03c e15e 333e
000000b0: cdb2 d33c 2d16 023d 1fb0 3f3e 49a5 843e
000000c0: 2d6d 8cbd 0101 943e 43cd 87bd f619 533e
000000d0: 3658 8a3e 112d 3abd a8d5 25bd 27a4 19bd
000000e0: 649b 38bd e390 343c 1d1f e73d e7ee 4c3d
000000f0: 686d f3bd 4cc8 953e 27fd 063e 37b7 65bc
00000100: fb82 e33d 7215 223e 1e9a 713e 482e 6c3d
00000110: f465 19bd c604 223e bd2b 6c3e 0e1a 1a3e
00000120: e844 583e 1eaf 953e b91f 283e bdbd 64bd
00000130: bd73 193e 9719 24bd 87aa 0e3e fd02 113d
00000140: e2ab 233e 99be 1a3e a918 c0bb 6575 da3d
00000150: 1178 31bd 5f00 413e 38e4 5f3e 992c 81bd
00000160: aa79 523e 6899 cb3d b7da 4d3e 820f a3bc
00000170: 9bee e63c 0173 0d3e d96b 6dbd 0676 7c3d
00000180: 88f1 e4bd 4b44 363e 8c0c e63c 1831 b63d
00000190: e3f9 dd3c f09b abbb 36a6 0d3e 9c9c 403e
000001a0: 10e7 703e 344a 633e a5f1 63bd 02f9 993e
000001b0: 2ddd b83d 28e3 9c3d 29a4 303c 6753 cb3c
000001c0: e387 563e 7d04 15bc 3e6b 88bd d849 763d
000001d0: a847 9d3e 43b6 9d3c 4a1d 7a3e c7cc 5b3e
000001e0: b4b8 663e 3497 5f3e 4397 ae3d ceaf 923d
000001f0: 3de2 6d3e f7a1 51bc 24cc 1a3e 2f1d 223e
0.31223884 0.048904628 0.13880657 0.22585389 0.23178063 0.23812394 -0.006821489 0.17585807
0.0058363583 0.13204654 -0.03918422 0.1671228 0.23395015 0.113882884 -0.06462487 -0.072197124
0.17893706 -0.046122834 0.1274369 0.32707664 0.09251894 0.32820132 0.08717225 0.10020736
-0.039666235 0.2612095 0.2894021 0.20571317 0.16252184 0.22145922 0.17008375 0.019059297
-0.05284791 -0.044549365 -0.008869744 0.27001554 0.1288745 0.20365226 0.15897198 -0.053011276
-0.052764233 0.14601353 0.021539481 0.17516662 0.025842095 0.03175943 0.18719529 0.25907353
-0.06856761 0.28907016 -0.066309474 0.20615372 0.27020425 -0.045453135 -0.04048696 -0.037510063
-0.045070067 0.011020872 0.11285231 0.050032523 -0.11886102 0.29254377 0.13182507 -0.014020733
0.11108967 0.15828493 0.23593947 0.057661325 -0.037450746 0.15822133 0.2306356 0.15049002
0.21120036 0.29235166 0.16418351 -0.05584501 0.14985557 -0.040063467 0.13932239 0.03540324
0.15983537 0.1511177 -0.0058623147 0.106669225 -0.043327395 0.18847798 0.21864402 -0.063073345
0.20554224 0.09941369 0.20102964 -0.019904856 0.028189948 0.13813402 -0.05796418 0.061635993
-0.11178881 0.17799489 0.028082155 0.08896083 0.027096694 -0.005237095 0.13832936 0.18809742
0.23525643 0.22196275 -0.055650372 0.3007279 0.09026561 0.07660514 0.010781326 0.024820043
0.20950274 -0.009095308 -0.0666108 0.060129017 0.30718732 0.019251948 0.24425235 0.21464835
0.22531396 0.21835023 0.08524945 0.07162438 0.23230834 -0.012794963 0.15116936 0.15831445

linear2.weight f4 [79, 128]
00000000: a786 5bbc 1584 33bc f4af a73c 8f80 35bd
00000010: 35f3 5cbd 329d 39bd ae49 88bc 5c9e aebd
00000020: 5490 e63b 9c33 973d 6fd3 e8bb 3a28 29bd
00000030: c208 683c 6069 cfbd 4e91 313c 00bf c4bc
00000040: a498 52bd 5085 33bd 1ab6 61bd 2b6a 7a3d
00000050: e717 84bd 041e 2bbd ec84 323d 9a44 bbbd
00000060: ea76 02bd ce34 ddbd 246d a4bd dbc0 76bd
00000070: a46e d6bd 2458 7ebc bb89 c2bd bc8b a2bd
00000080: 4d92 033d 9ebc 8d3d 2711 39bc 18c0 c3bc
00000090: 40b0 d3bd 1889 beba 42b1 12bc e74e 303d
000000a0: 3d78 a3bd 80c2 b43c 4b5e a4bd d9c7 d1bd
000000b0: eb1e 65bd 8b63 b4bd 6dcb 2abd 36bc 3e3b
000000c0: f78a 9fbd b440 a3bd 2c9a fc3c 3f90 683d
000000d0: 8a95 cf3c c0a5 adbd 3311 26bd 7366 9a3b
000000e0: 566c 8e3d a9b4 83bd 6681 acbd 8ce5 a03b
000000f0: 2b9c 9b3c 3bbc c0bd d072 27bd e2f7 7a3d
00000100: 58c6 4fbd 0603 a3bd efba 46bd a779 88bd
00000110: 240f 17bd 4af7 893d ca6e 5ebc 47c5 25bd
00000120: 22c9 9eba 4f58 873d 9cfa 98bd fd23 90bd
00000130: 2dc4 c5bd 441a 73bd 7b4f 7a3d bc94 9dbd
00000140: 131d a2bd 9fc6 373d 6490 dbbc 71c3 5fbd
00000150: b922 66bd a843 96bd 9e34 b0bc a5d1 423d
00000160: 3b24 8cbc 1072 6b3d ac30 81bd 373d 6f3c
00000170: b600 fe3c f76f a13c c3a6 69bd 4394 3e3d
00000180: fd1c 02bc 561f 35bd adb7 623d cd31 f53c
00000190: 7c0f c8bc 5a4f 4cbd 6a21 bbbc c5c8 8c3c
000001a0: 9d49 d8bd 93ae b6bd c8f8 53bd e4a7 323d
000001b0: 7405 40bb e0bd 94bc 4663 11bd 24f0 043c
000001c0: dc72 2bbd 8548 1abd dce4 c8bd 4039 663d
000001d0: c4ef b6bd 4c41 443d dffe 5d3d a2ad 16bd
000001e0: ce26 3b3d 316d 1e3d ed6f b1bd 1bed 47bd
000001f0: 578d 20bd 3ea0 40bc ffe6 d1bc d0e1 883c
00000200: e059 3fbe a108 2a3e 1a35 2bbe e222 22bd
00000210: 2db9 15bb f063 64be 6ede 333d b7bf 7b3d
00000220: 4c5d 92bd 697d a5bd 6514 673e 25e3 89bd
00000230: d14c 4e3e 1455 1b3e cf69 fe3d 905d e6bd
00000240: acf1 92bc 1444 a0bd d4fa 363e 9b99 47be
00000250: 50ae 26be bdd7 9d3e bbdf f93e 0eff 6d3d
00000260: da59 5e3d c1f0 a73e 5218 23be c790 33bd
00000270: 15b0 253c ad2e bc3d 5400 063e bb3f 5cbe
00000280: a3b9 45bd e1ee 16be 7a97 d9bc 5d4f f4bd
00000290: 29de babd d2fb 50be d3cd 94bd 5192 0abe
000002a0: cb40 663d 92ac 47bd 1803 2ebd 0fc4 153e
000002b0: aeb1 6abe bcbc c2bd f846 7abe 0be9 18be
000002c0: b9dc 6dbd a274 8e3e 4f38 b03c a79a 3b3e
000002d0: 0f3e a0bd 763e 423e 59e0 9a3d 5aa6 f5bd
000002e0: 78a8 76bd 4143 1cbe 6485 29bd 4a44 32bc
000002f0: e8b4 b8bd 4af3 893e 8de5 2c3e 9087 2ebe
00000300: 9b61 efbd 9162 e0bd 5679 27bd 1701 dfbc
00000310: 333a 443e 6066 08bd 50c1 613e a380 f33c
00000320: 39bd b53d 2f60 523e 068f 1a3e 987b 6bbd
00000330: e273 823d 59d2 40be 4109 273e ac71 82bb
00000340: c3d0 063e 209b 8c3d f866 8e3e fb3e 4d3c
00000350: 3689 b53e 0351 0bbe 8c8e ef3c be7c 92bd
00000360: dffb 52bd a057 24bd ef46 42bd eaca a7bd
00000370: 4027 163e d7b8 2e3e c118 4dbd cf9c 993e
00000380: 3417 71bd 771b 1ebe 73cf b13d 616a c2bb
00000390: 53b4 633e f7d7 27bd a9df 0f3e 4f17 c8bc
000003a0: 816c 4abd edbb f0bd 6259 5f3d c8f1 25be
000003b0: bce1 873e 31a7 7abd 370f b7bd 8d2a 84bd
000003c0: f82c abbd f4b9 093e fd86 c9bd 8bff 0cbe
000003d0: 603b 363d 6551 8c3e 00aa e4bd 8606 0fbe
000003e0: a135 313e c7b9 04be 4ca4 3e3e bf17 d33d
000003f0: 1b63 303e e507 b93e cf4a 843d 1a27 57be
-0.013398803 -0.010956784 0.020469643 -0.044312056 -0.053942878 -0.04531593 -0.016636696 -0.085262984
0.007036248 0.073828906 -0.007105283 -0.04129813 0.014162244 -0.101275206 0.010837866 -0.024016857
-0.0514151 -0.04382831 -0.055105306 0.061136406 -0.064498715 -0.041776672 0.043583795 -0.09143944
-0.031851687 -0.10801087 -0.080286294 -0.060242515 -0.10470322 -0.015523944 -0.09498926 -0.079368085
0.032121945 0.069207415 -0.011295593 -0.023895308 -0.103363514 -0.0014536707 -0.008953394 0.043043997
-0.07981918 0.022065401 -0.080257975 -0.10243196 -0.05593769 -0.08808049 -0.04169791 0.0029103882
-0.07790177 -0.079713255 0.030835234 0.05677819 0.02533986 -0.0847888 -0.040543746 0.00471192
0.06954257 -0.064309426 -0.08423118 0.0049101766 0.018995365 -0.09410902 -0.040880978 0.061271556
-0.050726265 -0.07959561 -0.048518118 -0.06663828 -0.036879674 0.0673662 -0.013576219 -0.04047134
-0.0012114386 0.066086404 -0.07469675 -0.07038114 -0.09656558 -0.05935122 0.061110955 -0.076943845
-0.07915702 0.044867154 -0.02680225 -0.054629747 -0.056185458 -0.07337123 -0.021509465 0.047563214
-0.01710712 0.057481825 -0.063081115 0.014601997 0.031006198 0.01970671 -0.057043802 0.046528112
-0.007941482 -0.044219337 0.055350948 0.029930973 -0.024421446 -0.049880363 -0.022843082 0.017185578
-0.105609156 -0.08920016 -0.05175093 0.043617144 -0.0029300125 -0.018156946 -0.035495065 0.008113895
-0.041857585 -0.037666816 -0.098092765 0.05620694 -0.089324504 0.047913834 0.054198142 -0.036786683
0.045691304 0.03867835 -0.08663926 -0.048810106 -0.039197292 -0.011756955 -0.025622843 0.016709238
-0.18686628 0.16604854 -0.16719475 -0.039584048 -0.002284597 -0.22303748 0.043913297 0.06146213
-0.07146701 -0.08080561 0.22566374 -0.067327775 0.2014649 0.15169173 0.12422525 -0.112483144
-0.017937504 -0.07825485 0.17869121 -0.1949219 -0.16277432 0.30828658 0.48803505 0.058104567
0.054284908 0.32800868 -0.15927246 -0.043839242 0.010112782 0.0918859 0.13086063 -0.21508686
-0.04827274 -0.14739563 -0.026561487 -0.119292 -0.09124405 -0.20408562 -0.0726582 -0.13532378
0.056214135 -0.04874856 -0.04248342 0.14625572 -0.22919342 -0.095086545 -0.24441135 -0.14932649
-0.058071826 0.2782336 0.021511225 0.18320714 -0.07824337 0.1896914 0.07562322 -0.1199462
-0.060219258 -0.1526003 -0.041386977 -0.010880539 -0.0901888 0.26943427 0.16884442 -0.170439
-0.11688539 -0.109563 -0.0408872 -0.0272222 0.19162826 -0.033300757 0.22046399 0.029724425
0.08873982 0.20544504 0.15093622 -0.057490915 0.06369759 -0.18830241 0.16312124 -0.003980836
0.13165574 0.06865525 0.27812934 0.012527223 0.35456246 -0.13605122 0.029242776 -0.07152699
-0.051509734 -0.04012263 -0.04743093 -0.08193 0.1466341 0.17062698 -0.050072435 0.30002448
-0.05886002 -0.15440165 0.08682146 -0.0059330915 0.22236757 -0.040977444 0.14050163 -0.024425177
-0.049419884 -0.11754594 0.0545286 -0.16205513 0.2653941 -0.061194602 -0.08938449 -0.064534284
-0.083581865 0.13449842 -0.098402 -0.13769357 0.04449022 0.2740585 -0.111652374 -0.13967332
0.17305614 -0.12961493 0.18617362 0.103072636 0.17225306 0.36138836 0.06459581 -0.2101101

linear2.bias f4 [79]
00000000: e5a8 1fbd bc89 183e 267b c43d 1270 a93d
00000010: be24 053d df82 21bc 90f1 68bd f6a9 0bbd
00000020: 59f1 073e d46b f2bb 76df 68bc 27cd 453d
00000030: b232 583d ed83 07bc dc98 b4bc 0ba4 b93c
00000040: c758 3d3c c698 cdbd 5ac6 85bd c845 96bc
00000050: 9f4b dc3c ae6c a0bd babb d63c dca7 cd3d
00000060: 930e c03d c4da a73c 9a2f 843c 865b 08bd
00000070: b3ec 113b 8ba3 133e c5bf e73c 4237 62bd
00000080: ac44 313c e255 533d c0fe 96bc 3c9a 3e3d
00000090: 55c5 1d3d 1409 753d 501f b0bd 38af 7439
000000a0: 5314 59bd 2151 27bd 3aea 27be d4ee 51bd
000000b0: ea10 e3bd c8c2 b0bb abba 0bbe 83b9 e73c
000000c0: a730 e0bc ec63 2bbb f889 303d 9fb5 bcbd
000000d0: 7e11 bebd f5af 963d 2df1 4abd 0369 4b3d
000000e0: 3268 efbd b4ac 1e3d 2599 263b c17b 00be
000000f0: 5537 86bc 3271 573d 0e9f b6bc ffae 1ebc
00000100: 98ef 593d deb0 d83d 0385 19be c813 cc3d
00000110: 4b82 8dbc 9755 b13d 8844 4e3d 759d 88bc
00000120: d049 3bbd 805f c33d fbc9 933d 1a94 c03d
00000130: 6b3d 33bd 4fea 0f3d 9acd 1bbe
-0.03897943 0.14896291 0.09593801 0.08273329 0.032505743 -0.009857862 -0.056870997 -0.034097634
0.1327566 -0.007398108 -0.0142134335 0.04829135 0.05278272 -0.0082712 -0.022045545 0.02266123
0.011556811 -0.10038905 -0.06531973 -0.018343821 0.026891528 -0.07833229 0.026212562 0.10041782
0.0937778 0.020490058 0.01613598 -0.03329041 0.0022266328 0.14417855 0.028289685 -0.05522848
0.010819595 0.051595576 -0.018432021 0.046533808 0.03851827 0.05982311 -0.085997224 0.00023334927
-0.0529979 -0.040848855 -0.16397944 -0.051253155 -0.110872105 -0.0053943135 -0.13645427 0.028286701
-0.02736695 -0.0026152087 0.043100327 -0.09214329 -0.0928068 0.0735778 -0.04954641 0.049660694
-0.116897956 0.03873892 0.002542087 -0.12547208 -0.016383806 0.052598186 -0.02229264 -0.009685277
0.05320701 0.1058061 -0.14992146 0.099647105 -0.017274043 0.08658903 0.050358325 -0.016676644
-0.04572469 0.095396996 0.07216259 0.09403248 -0.043759745 0.035135563 -0.1521515
