NLP & Language Understanding/8gram.pth (torch, 87053 bytes, 5 tensors)

embeddings.weight f4 [79, 10]
000000 31 ac 44 3f 49 de 58 3f 64 dd c8 bf f1 5b 82 bf
       0.76825243 0.8471418 -1.5692563 -1.0184308
000010 1d 21 70 3e c3 89 1d 3f c0 9d c9 3f 8c 61 a5 bd
       0.23450132 0.6153833 1.5751266 -0.08075246
000020 83 a2 77 bf ec f6 9b bf e2 05 87 3f c4 17 e2 3f
       -0.9673235 -1.218473 1.054867 1.7663503
000030 23 ee 59 3f eb d1 95 3f f5 cc e6 3e ac 58 72 bf
       0.8512899 1.1704687 0.45078245 -0.9466655
000040 36 93 5b 3e bb e0 d2 3f ef 66 13 3e 19 38 a3 3f
       0.21442875 1.6474832 0.14394735 1.2751495
000050 cf 85 38 bd ea 2a b0 3e 95 47 09 3f 61 1b 92 3e
       -0.045049485 0.3440774 0.5362485 0.28536513
000060 91 13 8c 3f 54 4a 03 c0 b5 03 95 3f 5d 08 b3 3f
       1.0943471 -2.0514116 1.1641756 1.3986927
000070 c2 c1 06 be 18 da 8a bf c5 2b 0f bf f0 7b 78 3f
       -0.1315985 -1.0847807 -0.5592616 0.97064114
000080 16 63 26 bf 59 75 0a 3d aa 96 82 3f 6e 82 a2 3f
       -0.64994943 0.033803318 1.0202229 1.2696054
000090 66 22 92 be 1b f9 dd 3d 8b f5 71 bf e1 95 06 3f
       -0.2854187 0.10838529 -0.94515294 0.5257245
0000a0 39 77 5a bf 7a 93 27 bf 0a 1e 6c bf a6 c9 05 3e
       -0.8533817 -0.65459406 -0.92233336 0.13065204
0000b0 a5 3e b4 bf 55 50 99 bf b0 de 7d 3e d8 b0 f3 3e
       -1.4081618 -1.197764 0.2479198 0.4759586
0000c0 f5 da c2 bf 02 a2 4c bf 3c 0a 6e 3f 81 c6 96 3d
       -1.522307 -0.79934704 0.92984366 0.0736208
0000d0 d6 60 79 bf 29 3e cf bf e5 02 19 c0 ef f3 04 3f
       -0.97413385 -1.6190845 -2.3908017 0.51934713
0000e0 e7 72 09 40 a7 c3 a5 be 6b 87 32 3f 73 d3 cb 3e
       2.147638 -0.32375833 0.6973788 0.3980976
0000f0 9f d8 e2 3e d1 11 86 3f 72 58 64 bf 0f 9d 29 3f
       0.44305894 1.0474187 -0.89197457 0.6625528
000100 93 83 98 be 38 99 ee be 92 e8 5b bf 68 b7 1a 3d
       -0.29787883 -0.46601272 -0.8590175 0.037772566
000110 45 e1 02 40 7b 7e 7a 3d 16 2a e0 3f d3 ea 10 bf
       2.0449994 0.061155777 1.7512844 -0.56608313
000120 23 6f de 3e 07 3a d0 3f f7 c4 a0 bf 22 b3 df 3f
       0.43444166 1.6267709 -1.2560109 1.7476542
000130 f2 69 90 3f 4b 34 04 3f e9 17 85 bf ea 1e 76 bf
       1.1282332 0.5164229 -1.0397922 -0.9614092
000140 4d ed e7 bd 0a a5 c6 bf 09 95 de 3f 9e ae a4 3f
       -0.113245584 -1.5519116 1.7389232 1.2865789
000150 e7 38 55 3f 86 0e 75 bd a0 1f d2 bf 7f ba 2a 3f
       0.8328995 -0.059828304 -1.6415901 0.6669082
000160 ea ff d8 bf 26 81 5c bd f2 9a 1d 40 27 d6 08 be
       -1.6953099 -0.053834103 2.462582 -0.13362943
000170 f3 a6 ba 3f 34 93 85 bf d1 3c 72 3c 0e 78 88 3f
       1.4582199 -1.0435548 0.014785008 1.0661638
000180 63 9e 48 be e7 7e aa 3f 4d 31 89 3f b0 3c 63 3f
       -0.1959167 1.3319978 1.071817 0.88764477
000190 da ed 7a bf 61 86 4d 3f 4a 52 f8 bd ee 7e d3 3d
       -0.9801918 0.8028317 -0.121250704 0.10326944
0001a0 fd 06 9b bd ed 17 4d bf 36 d6 82 be f6 78 92 bc
       -0.07569692 -0.8011463 -0.25554055 -0.017879944
0001b0 d8 79 15 c0 59 c8 79 bf 39 ad 46 bf 6d 5f 80 3f
       -2.3355618 -0.9757133 -0.77608067 1.0029122
0001c0 f5 5f 51 3f 2c e8 c8 bd 11 10 3f 3f 26 bc f2 3e
       0.81787044 -0.09809908 0.7463389 0.4740917
0001d0 04 e2 60 3f 15 74 f7 3c 74 fe e9 3f 35 8f f0 3d
       0.8784487 0.03020672 1.8280778 0.117460646
0001e0 7d 01 73 bf 1a 5a 80 3f 30 73 67 bf 71 9c 67 3f
       -0.94924146 1.0027497 -0.9041014 0.90473086
0001f0 6c c8 ba bf 00 b9 c2 be 7d c1 b5 be ac 73 27 bb
       -1.4592414 -0.3803177 -0.35499182 -0.0025551124
000200 43 6c e2 bf f5 2f c5 3e 3a 0b 40 3e 67 2c ac be
       -1.7689289 0.3851315 0.18754283 -0.33627626
000210 24 3e 95 3e 75 ee 81 bf 34 80 c3 3e 8b fa 11 bc
       0.29148972 -1.0150896 0.3818375 -0.008909832
000220 ef 37 83 be b7 c8 f1 bf d3 7c d6 3c 21 a6 7d 3c
       -0.2562861 -1.8889378 0.026182568 0.015481503
000230 48 42 a5 be 90 a6 9a bf c2 57 86 bf be f8 1d bf
       -0.3227713 -1.2082081 -1.0495532 -0.61707675
000240 a6 64 3f be 24 b4 ae bf b3 3a 8e bd 92 a2 be bf
       -0.18690738 -1.3648725 -0.0694479 -1.4893363
000250 8d d0 1a bf b1 82 c8 3f 27 9e 13 bf df b0 c2 3f
       -0.60474473 1.5664884 -0.57663196 1.5210227
000260 63 19 0f bf 90 b9 c0 3d ea 0c 50 bd f0 84 f0 3e
       -0.5589811 0.09410393 -0.050793566 0.46976423
000270 f5 9f b0 3f b8 f1 2f 3e 2a c9 ba 3d 3f 6e 4d c0
       1.3798815 0.17182052 0.091204 -3.209854
000280 ee fe 66 bf 52 a6 03 bf 54 fb b9 3e d9 90 21 3f
       -0.9023274 -0.5142566 0.3632456 0.63111645
000290 dd aa 88 3f 69 e7 05 3f 5d 63 a0 3f 6c 0a e0 3d
       1.0677143 0.5230623 1.2530323 0.10939488
0002a0 91 5c 08 c0 6f ab 33 bf 93 4f a0 3f 0b 25 35 3f
       -2.1306498 -0.7018346 1.2524284 0.7075965
0002b0 aa 57 9e 3e 03 5a 1b 3f 6c 11 a8 3e 41 da 27 3f
       0.30926257 0.6068422 0.32825792 0.65567404
0002c0 a5 06 f9 be c8 6b c7 3f 06 4c 15 3f 22 a8 f8 3c
       -0.48637882 1.5579767 0.5831913 0.03035361
0002d0 38 dd 96 be 9d ee 4f 3f 92 f2 9b be bb 5e 09 3f
       -0.29465652 0.8122347 -0.30458504 0.5366017
0002e0 2a 0e 5a 3e 8b 29 f6 3f 2e fb 14 c0 15 75 09 3f
       0.21294466 1.9231428 -2.3278308 0.5369428
0002f0 5b 73 b3 bf b8 96 cd bf a6 35 21 3f c1 21 d1 bf
       -1.4019579 -1.6061621 0.62972486 -1.6338426
000300 fd 72 1d 3e 8f b7 91 be ae de 98 bf b4 5a 2f bf
       0.15375896 -0.28460357 -1.1942956 -0.68497777
000310 90 00 b5 bf da ef d3 3e 9b b1 26 3e e7 be 13 3f
       -1.4140797 0.4139393 0.16278689 0.5771317
000320 eb a0 bf 3d 6e db cf be e5 3a 04 40 d0 14 62 bf
       0.093568645 -0.405971 2.0660946 -0.8831301
000330 0c b5 81 3e 77 9c 99 3f 21 0d f5 3f bb 19 11 c0
       0.2533344 1.2000874 1.9144632 -2.2671955
000340 03 4f 73 3e 99 b4 58 bf 2d ce 93 bf 1c 2c 1a 3f
       0.2376061 -0.8465057 -1.1547295 0.60223556
000350 f5 98 68 be ae 46 fa 3e cb d5 8d bf b3 99 27 3d
       -0.22714598 0.4888205 -1.108087 0.040918063
000360 ef 0b 7f bf 34 fd e7 bd e0 2f 00 bf 63 87 81 bf
       -0.99627584 -0.113275915 -0.5007305 -1.0119442
000370 df ea 0e bf 35 d5 20 3f a5 06 48 be 5c 00 0b 3f
       -0.55827135 0.6282533 -0.19533785 0.54297423
000380 31 c9 3d 3f 34 4c 47 3f c3 3c 96 3f 71 3d 09 bf
       0.7413512 0.7785065 1.1737293 -0.5360938
000390 6e 04 79 bf e4 2e 9b 3f 4f c4 c4 3e d1 7f 5f be
       -0.97272384 1.2123685 0.38431022 -0.21826102
0003a0 fd ea bf 3f b3 00 17 be b9 52 fe be cc ed 9c 3f
       1.4993588 -0.1474636 -0.49672487 1.226007
0003b0 cc 2f 68 3d a7 1a 1f 3f 91 c7 1e bf 67 16 dc be
       0.056686208 0.62150043 -0.62023264 -0.42985842
0003c0 be 66 98 3f c0 0a df 3e ad 3d 01 c0 91 20 82 3e
       1.1906354 0.4356289 -2.0193894 0.2541547
0003d0 1b f7 fd 3f 47 cb 53 bf 4f a5 93 3e ba b8 16 3f
       1.9841036 -0.8273205 0.28837058 0.5887562
0003e0 3d e7 31 be 0c 79 4e be a1 06 c0 bd ce 63 d2 bf
       -0.17373367 -0.20163363 -0.09376264 -1.6436708
0003f0 e4 67 c1 3f a7 b0 f6 be 4c 9f 8c bf 9e 75 c1 3f
       1.510983 -0.4818165 -1.0986114 1.5114019

linear1.weight f4 [128, 80]
000000 8c d3 ef bc be 52 db 3d 30 91 0b 3e 14 2d f9 bd
       -0.029275678 0.10709141 0.13629603 -0.12166801
000010 4c 09 ab bb 45 d7 09 3d e1 3a 36 bd bf f7 ab 3d
       -0.005219614 0.033652563 -0.044489745 0.08396863
000020 f4 90 0a bd b2 ff d1 bd a2 03 3b 3c 78 60 c5 bc
       -0.033829644 -0.10253848 0.01141444 -0.024093851
000030 d3 04 f2 bd 25 08 f3 3d 94 3b 05 3c b3 84 b1 bc
       -0.118173264 0.11866788 0.00813188 -0.021669721
000040 92 d0 98 bd bd 1d fc 3c f6 2a 31 3c a0 4b 25 bd
       -0.07461657 0.030775899 0.010813465 -0.040355325
000050 21 43 47 3b b4 db c0 bd 78 78 bc 3d b1 2d 8e bd
       0.0030405002 -0.09416905 0.09202665 -0.06942309
000060 2d b9 4d bd 92 4e 0d bd 69 a4 35 bd 97 b2 2d 3d
       -0.050225426 -0.03449876 -0.044346247 0.042406645
000070 8f 4a b5 3d 33 a0 0d 3e 99 83 15 3e 2f 6a 22 3d
       0.088521115 0.13830642 0.14600982 0.039652046
000080 1e b3 eb 3d 85 d4 6a bd 17 ad 3b bc 3a f7 ed 3d
       0.11508773 -0.05733158 -0.011454842 0.1161942
000090 8a 7d 04 bc 4a f7 fe 3b 73 2b 1d 3e 95 78 b4 3d
       -0.0080865715 0.007780944 0.15348606 0.08812062
0000a0 48 b6 fc 3d 89 10 aa 3d 46 08 36 3d a0 78 bd bc
       0.12339455 0.08303935 0.044441484 -0.023128808
0000b0 e0 53 b1 3d ab 12 89 bc 1a bb 71 3a 2e 00 be 3d
       0.08658576 -0.016732534 0.0009221301 0.09277378
0000c0 6c 39 9a bc cd 5e 20 3d 0e 49 c7 3d 6a 21 99 bd
       -0.018826209 0.03915291 0.09730731 -0.07477076
0000d0 a3 bc 97 3d ad c1 00 be 14 08 e7 bc 36 3c 32 bd
       0.074090265 -0.12573881 -0.028202094 -0.043514453
0000e0 8d a9 a3 3c 83 b8 09 3e f6 7c 2e bd 69 6c 24 bc
       0.019978309 0.13449292 -0.04259964 -0.010035613
0000f0 f2 0b b1 bd 22 5c 1d 3d 33 d1 22 bd 21 aa 69 bd
       -0.086448565 0.038417943 -0.03975029 -0.057047013
000100 99 11 19 3d 89 db ff bb 99 50 8d bd 01 d5 17 3d
       0.037370298 -0.007808153 -0.069001384 0.03706837
000110 80 d1 8b bd f7 ab c4 bc cf 57 cc bd ba cd e6 bd
       -0.06827068 -0.02400778 -0.09977686 -0.11269708
000120 ff 09 ae bd d9 ce 49 3d c7 a3 96 3d 05 3f 20 be
       -0.08498 0.04926953 0.07355457 -0.1564904
000130 db d9 39 bd b4 f0 68 bd e8 35 8a bd c0 46 a8 bd
       -0.04537378 -0.056870177 -0.06748563 -0.082166195
000140 81 5d 0d be 24 84 65 bd 82 e7 9e bd d9 68 78 3d
       -0.138052 -0.056034222 -0.07759 0.060646866
000150 b6 53 37 3d 31 06 93 3c 27 df 15 3e be 65 34 3d
       0.044757567 0.017947288 0.14635907 0.04404234
000160 df 8a 20 3d db eb 20 3d 28 a1 34 bc 1e 49 6a 3c
       0.039194938 0.03928743 -0.011024751 0.014299659
000170 5f 4b 08 3d 77 47 2b bd c4 4e 38 3d ae 60 9a bc
       0.033275004 -0.0418162 0.04499699 -0.018844929
000180 ce d7 24 3d 26 66 ca 3d 6e a7 84 bb 36 fc a5 3d
       0.04024487 0.098827645 -0.0040482795 0.08104746
000190 aa 70 ab bc f3 ec 79 3d 38 27 a6 bd 83 7d 6f bd
       -0.020927746 0.061016988 -0.08112949 -0.058469307
0001a0 54 9a 93 bd 05 ca 94 3d 0b b1 17 3e c4 09 a8 3c
       -0.0720717 0.07265095 0.1481363 0.02051247
0001b0 94 bf 0a be 78 f8 8c bc 1a c4 41 bd 7e a2 d8 3d
       -0.13549644 -0.017208323 -0.047306158 0.10577868
0001c0 11 18 a2 3d aa 12 13 3d e7 31 d3 bd 87 c0 94 bd
       0.079147466 0.03590647 -0.103122525 -0.07263284
0001d0 97 71 5f bd 09 16 1d 3e 06 2e be 3d c0 2e 9f 3d
       -0.054551687 0.15340437 0.09286122 0.07772589
0001e0 63 1f 6b bd 10 66 c4 3b a6 fa 32 be c2 64 26 3e
       -0.05740298 0.005993612 -0.17478427 0.16249374
0001f0 ba cb 9c 3d 01 90 da 3d a2 d9 a8 bc b6 8e b1 bd
       0.07656045 0.10671998 -0.020611588 -0.08669798
000200 0a 5e 0d be 6f 9a ea bd 1b 33 99 3d 72 26 0f 3e
       -0.13805404 -0.11455237 0.07480451 0.1397951
000210 81 a7 a6 bd af 9e 37 bd 75 d7 e9 bd 87 65 7f bd
       -0.081374176 -0.044829067 -0.11418048 -0.062352683
000220 c3 8b 72 bc 24 a7 3f 3d 5e f3 75 3d 64 ca c6 3c
       -0.01480383 0.046790257 0.060046546 0.02426643
000230 1e e7 43 3c 38 62 25 3b 5b 0e c5 3c 31 31 f4 3d
       0.011956958 0.0025235545 0.024054697 0.11923445
000240 ff 69 f2 3d 04 62 66 3d c2 a8 40 3d 47 dc 85 3c
       0.118366234 0.05624582 0.04703594 0.016340388
000250 7f 78 07 bd 3f 4a 32 bd bc 88 93 3c 77 73 c0 bd
       -0.0330739 -0.043527838 0.018009536 -0.09397023
000260 2a 98 38 bd 59 ce e6 3d b5 e4 7d bb d2 fb e4 3d
       -0.04506699 0.112698264 -0.0038741056 0.111808434
000270 96 ed 78 3c d7 6d a7 3d 00 b7 b9 bd e1 62 2f be
       0.015193364 0.08175247 -0.090681076 -0.17127563
000280 ff 4b f3 bd 27 80 22 3d 75 03 f5 bc ba 82 49 b9
       -0.118797295 0.039672997 -0.029908875 -0.00019217553
000290 7e be 8e 3d e4 27 3a bd 00 37 a1 3d 21 54 de bc
       0.06969927 -0.0454482 0.078718185 -0.027139725
0002a0 b6 d6 21 3c 42 3d 88 bd fe 88 33 3d 26 15 2b 3d
       0.009877851 -0.06652309 0.043831818 0.041768216
0002b0 d2 45 c8 3d c2 0b e8 bd 2e 31 32 bd 58 da 14 3d
       0.09778942 -0.113303676 -0.043503933 0.03634104
0002c0 b0 63 8d 37 2d c9 e1 bb f9 bb cb bd 14 d4 dc bd
       1.685493e-05 -0.006890437 -0.09947962 -0.10782638
0002d0 04 bc fb bd 8a 6b 84 bd ab 91 65 3c 67 19 31 3e
       -0.122917205 -0.06465824 0.014011781 0.17294846
0002e0 43 6a 76 bd c2 0e 61 bd 87 ec 23 bd 6c ac 32 3e
       -0.060159933 -0.054945715 -0.040020492 0.17448586
0002f0 1b 3f be bd 41 f2 e0 bd 4f c5 fa bd 6b 4a eb bd
       -0.0928938 -0.10983706 -0.12244665 -0.114888035
000300 29 c3 8d bd 39 b1 dd bd c4 30 f1 bc 0e db 0c be
       -0.069219895 -0.10824818 -0.029442199 -0.13755438
000310 92 12 11 bd 04 36 05 3e 7e 55 95 3c 23 fb 2e be
       -0.0354181 0.13008887 0.018229242 -0.17087989
000320 5f 7c f1 3d eb 26 63 bd 81 7c 5c 3d a0 ba af 3d
       0.117913 -0.055457037 0.053829674 0.08580518
000330 80 19 20 3e 9d 12 c7 bd 2b 1c b7 bc 47 3e 1e bd
       0.15634727 -0.09720347 -0.022352299 -0.03863361
000340 27 97 25 3d 78 c5 e1 3b 72 fe 1a bd 94 b1 20 3e
       0.040427353 0.006889995 -0.037840314 0.1569274
000350 d8 a3 09 bc f4 9e c8 bd 44 cb 0d 3e 70 e5 c5 3d
       -0.00840088 -0.09795943 0.13847071 0.09662902
000360 05 26 dd bd 09 a2 9d 3c 88 af 37 bd 09 0f f3 bd
       -0.10798267 0.019242303 -0.044845134 -0.11868102
000370 93 01 fd 3d f9 0a af 3d 3b 01 25 bd a4 1a 20 3e
       0.12353816 0.08547015 -0.040284377 0.15635163
000380 98 00 26 be 02 a5 3c bc 53 3a 1d 3d 34 96 89 3d
       -0.16211164 -0.01151395 0.0383857 0.06718102
000390 d8 d2 97 bd 73 59 1f bd 40 59 e0 3d 52 38 63 bd
       -0.07413262 -0.038903665 0.10954523 -0.055473633
0003a0 32 97 27 3e 02 85 15 be 39 f7 5e 3d 2c c0 ec 3d
       0.1636627 -0.1460152 0.05443499 0.115600914
0003b0 ce b6 fd 3d 48 f6 13 bd d8 9d 68 bc b4 fd 19 3d
       0.12388383 -0.036123544 -0.014197789 0.037595466
0003c0 0a 03 af 3c 78 8e 7a 3d 3c cc 83 bd 1c 8d af bd
       0.021363754 0.061171025 -0.06435439 -0.08571836
0003d0 d2 4d d6 bd 39 74 e0 bd c2 53 24 bd e2 7e 6b 3d
       -0.10464062 -0.10959668 -0.04011894 0.05749405
0003e0 4b e0 81 bd 21 9a c6 bd af 81 ee bd 6f b6 38 3d
       -0.063416086 -0.096973665 -0.11645829 0.045095857
0003f0 fa d7 fb bc 89 f2 ef 3d 6f c8 07 3c 10 78 c7 bd
       -0.030742634 0.11716182 0.008287533 -0.09739697

linear1.bias f4 [128]
000000 5b 05 62 3d 6f 19 22 3e 7d ea d7 3d ed 8b 26 3d
       0.05518089 0.15830015 0.10542772 0.040660787
000010 2f 76 fa 3d 19 9c 13 3e d8 45 8e 3d 45 6a 9c 3d
       0.12229573 0.14415015 0.069469154 0.07637457
000020 df 8c 07 3e ce ef c2 bc 6e 60 75 bd 6f 96 06 3e
       0.13237332 -0.023795988 -0.059906416 0.13143323
000030 e5 70 d2 3d 0e 95 42 3d b8 ea fa 3c 92 27 ef 3c
       0.10275439 0.04750543 0.0306295 0.029193673
000040 02 f7 95 3d 2d 91 eb 3d 7c b0 7b 3d a4 bc 0d bd
       0.073225036 0.115022995 0.061447605 -0.03460373
000050 54 85 8c 3c d4 02 f9 3d 74 e5 40 3d d0 93 61 bc
       0.01715342 0.121587425 0.047093824 -0.013768151
000060 26 e7 05 3e 45 9f f6 3c 2d 79 c6 3b 2f dc fb 3d
       0.13076457 0.030105243 0.0060569257 0.12297856
000070 fc f2 81 3e 81 49 a2 bc 21 de 5c 3d 15 dc fe 3c
       0.25380695 -0.01981044 0.053922776 0.031110803
000080 48 97 06 3e 27 75 11 3e 92 1b 84 3d 25 d2 22 3e
       0.13143647 0.14204846 0.06450571 0.15900476
000090 82 ea 2c 3e 50 28 46 3d 3f 30 8f 3d 7d 71 e8 bb
       0.16886333 0.04837829 0.06991624 -0.007093607
0000a0 17 48 35 3d d2 07 ab 3d 2a cb cd 3d 6e a3 d8 3c
       0.044258203 0.08351101 0.10048516 0.026445117
0000b0 18 d4 bf bc 25 c5 c7 3b b0 d5 0c 3e 92 23 e9 3a
       -0.023416564 0.0060964995 0.1375339 0.001778709
0000c0 d8 6b fe 3d b6 21 d6 3d 4e 2c 1b 3d ed 54 c1 3d
       0.12422913 0.104556486 0.03788405 0.094400264
0000d0 ed 09 13 bc 77 bd 39 bc 6c c3 f4 3d 94 1a 65 bd
       -0.008974534 -0.011336676 0.11951336 -0.05593355
0000e0 83 5e 2f 3d 1a bb ac 3a 20 b2 81 bc e3 67 d0 bc
       0.042814743 0.0013178319 -0.015832007 -0.025440162
0000f0 33 4a b7 bb 39 16 9e bc fe d3 16 3e ed 68 0c 3e
       -0.005593562 -0.019297706 0.14729306 0.13711901
000100 54 af 31 3e 59 01 39 3e 49 de 98 3d 30 af 19 3e
       0.17352039 0.1806692 0.074642725 0.15008235
000110 12 03 25 3e cb c4 39 bd 6c 79 88 3d 14 ee 18 bd
       0.16114452 -0.045353692 0.066637844 -0.037336424
000120 af a0 67 bd 71 cf cc bb e5 29 30 3c 09 b1 b5 3d
       -0.056549724 -0.006250315 0.010752176 0.088716574
000130 d0 c2 fd ba 96 e1 29 3e be 1d c2 3d 89 58 a9 3d
       -0.0019360427 0.1658996 0.09478329 0.0826884
000140 2c be bd 3d b0 97 82 3e 30 ce b8 bd 30 12 48 3e
       0.09264788 0.25506353 -0.09023702 0.19538188
000150 1c a2 f3 3d 62 24 c9 3d 7c c6 f8 3b c0 3e 58 bd
       0.11896154 0.098213926 0.0075920206 -0.052794218
000160 97 9a 49 3e 1f e2 a5 3d 82 2b 3d 3d 9e f4 9c bc
       0.19687878 0.0809977 0.04618407 -0.019159611
000170 5f 02 d2 3d fb 0c ac 3d 69 19 e1 3d 89 e9 c4 3d
       0.102543585 0.08400913 0.10991175 0.09614856
000180 c8 59 01 3d 8b 0e c4 3d 9c dd 42 bd 95 5f 96 3d
       0.031579763 0.09573086 -0.047574624 0.073424496
000190 c0 b2 01 3e 10 b5 de 3d c3 07 8f bd 37 9c b2 ba
       0.12665844 0.10874379 -0.06983902 -0.0013626878
0001a0 4c 20 9e 3d cd d9 2b 3e 0e 46 0f bc c2 a8 02 3d
       0.07721004 0.16782303 -0.00874473 0.03189922
0001b0 24 7c 05 3e 01 a4 6f bd 06 83 f4 bb fe 6b 5e 3e
       0.13035637 -0.058506016 -0.0074619083 0.21720883
0001c0 58 84 6d 3d 08 9d 9e 3d 16 79 b1 3c 83 b5 1d 3d
       0.05798754 0.07744795 0.021664184 0.03850318
0001d0 3e 7a 60 3c 04 21 3f 3d 59 ca a7 3d 72 b6 2f 3e
       0.01370102 0.046662346 0.08192892 0.17159441
0001e0 a2 fc 29 3e 99 25 39 3e 47 bc cf 3c b3 cd 3d 3b
       0.16600278 0.18080749 0.025358332 0.0028961718
0001f0 5d 62 34 3e 3a c0 3c bc fc e1 02 3e ea 24 fa bc
       0.17615648 -0.01152044 0.12781519 -0.03053518

linear2.weight f4 [79, 128]
000000 e3 d7 9b bd 9c 95 bc 3b 22 63 2a 3d dc d1 ae bd
       -0.076095365 0.0057551395 0.041598447 -0.08536121
000010 bd 31 39 3c 5e 85 9f bd 08 9c 18 bd 8c d4 99 bd
       0.011303362 -0.0778911 -0.037258178 -0.07511243
000020 df bb b5 3c 46 26 ff bc ce e9 45 3b aa 57 1f bd
       0.02218431 -0.03114618 0.0030199173 -0.038901962
000030 89 3d a0 bd e9 4c 44 3d bd 37 3d 3c 84 32 ff bc
       -0.07824237 0.04792491 0.011548934 -0.031152017
000040 dc 21 bf bd af 07 97 bd 66 59 83 bd 48 44 f0 3c
       -0.0933263 -0.073745124 -0.06413536 0.029329434
000050 d6 50 4e 3d 5a 19 a6 bb f8 9d 13 3a 0d 21 de 3c
       0.05037006 -0.00506894 0.0005631144 0.02711537
000060 b6 12 bb bd 8f 0a e2 ba 3a 7e 07 bd 6a 87 95 3d
       -0.09134428 -0.0017245578 -0.033079363 0.07301219
000070 4e 4d a8 bd ff 4e 05 bd e1 c0 47 3d e4 e6 b4 3c
       -0.0821787 -0.03254604 0.048767928 0.022082753
000080 a5 56 bc bd c6 f7 8d bc 12 97 0f 3b a2 41 4a 3d
       -0.09196214 -0.017330062 0.0021910113 0.049379
000090 9c cb b8 bd 98 2b 87 3c 08 9d 0f 3d 5d 5f 59 3d
       -0.090232104 0.01650028 0.035061866 0.05306946
0000a0 4a 7b b0 3c 9c a4 8f 3a 62 02 f4 bb 58 ff 91 3d
       0.021543164 0.0010959092 -0.007446573 0.07128781
0000b0 b5 6c a0 bd a6 3f ca bb 55 e1 6b 3d c2 7f 36 3a
       -0.07833234 -0.0061721383 0.05758794 0.00069617864
0000c0 da 36 56 3c 3a 11 50 bd 75 87 82 bd bf 0d 0d 3d
       0.013074601 -0.05079768 -0.06373493 0.034436937
0000d0 8a b9 2d bd e1 78 1d bd 4e 1d 4a bd 53 96 ec bc
       -0.042413272 -0.038445357 -0.049344353 -0.028880274
0000e0 6b 7e 7b 3d 14 12 4e 3d 50 e1 b2 bd a4 14 8b 3d
       0.06139986 0.05031021 -0.08734381 0.06791046
0000f0 72 87 3b 3d f8 c2 9d 3d 34 ea 0a 3d 1f 90 26 bc
       0.045783468 0.07703203 0.03391476 -0.010166197
000100 3c a9 8d bc f0 5c 0b ba 11 ac b8 bd cc f1 69 3d
       -0.017292611 -0.0005316278 -0.09017194 0.05711536
000110 7e 2e 8e bd 55 e4 0b bd dc e8 8b bd 87 49 94 bd
       -0.069424614 -0.0341533 -0.06831524 -0.07240587
000120 b1 40 50 3d fa ff 28 3d eb b3 4a bd a0 84 71 bd
       0.050842945 0.041259743 -0.04948799 -0.05896437
000130 96 a7 56 3d 8e 22 a0 bd 46 29 15 3c 31 f4 6c bd
       0.052405916 -0.07819091 0.009104079 -0.057850067
000140 75 c4 43 3d 1b 45 2f 3d 96 b1 07 3d b9 35 66 bd
       0.047794778 0.042790513 0.033128344 -0.056203578
000150 8b 4c 8b 3c 5d f2 c2 bb cc 5d a5 bd 6e 78 9b bd
       0.017004272 -0.005949302 -0.08074531 -0.075913295
000160 c0 a4 64 bd 50 34 24 3d a4 01 57 bd a8 9d a8 bd
       -0.05582118 0.04008895 -0.0524918 -0.082331955
000170 89 60 fb 3c ca 9d 59 3d 2e 05 00 3c 2c 7a 30 3c
       0.03068568 0.053128995 0.007813735 0.010771316
000180 cb c0 74 bd 37 b8 13 3d 8d d6 58 bd 29 11 3d bb
       -0.059754174 0.036064353 -0.052938987 -0.002884934
000190 6e 0c 6b 3c c5 9a bc 3c 8e 4a 37 bd 7a d3 c3 bc
       0.014346225 0.023023019 -0.044748835 -0.02390455
0001a0 76 b7 c0 3c 36 7c 86 bd 99 7d 4c bd 26 34 3d 3d
       0.023524981 -0.0656666 -0.049924467 0.04619231
0001b0 7f 03 e4 bc 0b 4a 24 bd db f6 2c 3c 6a df 57 bd
       -0.027833698 -0.040109675 0.010556902 -0.0527033
0001c0 85 71 03 bd ed d7 86 3d 09 5f 95 bd d5 e3 88 3d
       -0.032090683 0.06584153 -0.07293517 0.066840805
0001d0 64 2e 41 ba 15 0f 9b bb c4 21 01 3b 20 29 69 3d
       -0.00073692785 -0.0047320225 0.0019703964 0.056923985
0001e0 38 98 a5 bd d2 ef 68 bd fc 49 ca bd a3 f7 7d 3d
       -0.08085674 -0.056869335 -0.09877393 0.062003743
0001f0 6c 16 80 bd 0a df 93 bc 10 3c d0 bd 88 4f 76 3d
       -0.06254277 -0.01805069 -0.10167706 0.06013444
000200 72 f5 71 bd 75 2f b8 3c e7 17 70 3e 8a e7 82 bc
       -0.059071966 0.022483567 0.23446618 -0.015979547
000210 a9 50 ed 3d 17 88 74 3e 42 4f 72 3d c4 48 1e be
       0.1158765 0.23880039 0.059157617 -0.15457445
000220 b4 eb 07 be 9c d0 91 bd 55 22 86 3e 9d fa 17 bc
       -0.13273507 -0.07119867 0.26198068 -0.009276059
000230 2c b3 95 3c e8 dd 83 3e bf 2f be 3c df 29 ac 3d
       0.018273912 0.2575524 0.023216126 0.08406424
000240 77 54 95 3d 34 1c e1 3d d1 d0 f8 bd d9 62 21 bd
       0.07291501 0.109917074 -0.121492036 -0.03940091
000250 b4 49 71 3b 41 fd 01 be be d9 e1 3e 27 0e 7a 3d
       0.0036817612 -0.12694265 0.44111437 0.061048653
000260 0c bf dc 3c 59 4f f2 3c a1 48 ee bd ef 15 59 3e
       0.026946567 0.029578852 -0.116349466 0.21199773
000270 f2 fe 3d 3e ba 0b 1f be 40 11 e8 bc ff a6 6c bd
       0.18554285 -0.15531817 -0.028328538 -0.057776447
000280 eb ee 58 3e c2 93 b5 3e 8c 1f 12 3d 7a 49 88 3d
       0.2118489 0.35464293 0.035674617 0.066546395
000290 d3 51 93 3d c4 63 34 bc b7 51 45 3c 41 c0 a0 bd
       0.07193341 -0.011010114 0.012043408 -0.078491695
0002a0 5d 78 f6 bd 6e be 69 bd 70 e6 b6 bd 77 01 bd bd
       -0.12034676 -0.057066374 -0.08930671 -0.09228795
0002b0 95 ef 07 bd 3c a4 4b bd d7 03 dc 3d 71 ee d7 3d
       -0.033187468 -0.049717173 0.1074292 0.10543526
0002c0 d8 f1 a1 3e dc 98 b5 bd 0d f1 a6 3c 2e f0 da bd
       0.31629825 -0.08867046 0.020378614 -0.10690342
0002d0 4e 5f c5 3d 59 ad d0 bd 0f 8b 86 bc b3 5d 6e 3d
       0.096373186 -0.101893134 -0.01642373 0.058194827
0002e0 c0 88 7c 3d ef b9 2a bd e2 9f 10 bd 9d 0e f3 bd
       0.061653852 -0.041681226 -0.035308726 -0.11868022
0002f0 be b1 a6 3c 50 68 b2 bd ea ea 5c 3d 0e 24 71 bd
       0.020348426 -0.08711302 0.05393497 -0.058872275
000300 c1 26 bc 3b e2 d3 cd bd 29 7e 14 3e 0a f1 10 3c
       0.0057419245 -0.10050179 0.14501251 0.008846531
000310 13 8f 32 3e d1 16 9e 3d 1e af ec bb ee ea 0b bd
       0.17437391 0.07719196 -0.007223024 -0.034159593
000320 db e3 20 3c e1 90 16 3e 89 09 1f bc 37 13 70 3e
       0.00981995 0.14703704 -0.009706863 0.2344483
000330 86 27 d3 3c fa 26 44 bd 59 36 0b 3d e7 e6 6b bc
       0.025775682 -0.047888733 0.033987377 -0.014398313
000340 04 e4 dd 3c 28 d4 ef bc 51 93 01 3e 23 ce 62 3d
       0.027086265 -0.029275969 0.12653853 0.05537237
000350 b8 77 84 bd 74 fb 0d 3e 19 e3 1a be 0f 32 d3 bd
       -0.06468147 0.13865453 -0.15125693 -0.10312282
000360 ca 17 88 3e 7d 95 e8 bd 92 b1 e2 bd a0 13 dc bc
       0.2658065 -0.113566376 -0.11069025 -0.026864827
000370 ba 2e 14 be fe f7 fe bd d2 3f 36 3e 7e 96 4f 3d
       -0.1447095 -0.124496445 0.17797783 0.05068063
000380 2f b3 cc 3c 06 27 2b be f8 1a bf bd 28 c6 1c bd
       0.024987785 -0.16714105 -0.09331316 -0.038274914
000390 4e 01 0e 3e 66 69 47 bd d6 d6 93 bd e8 4c 14 be
       0.13867685 -0.0486845 -0.07218711 -0.14482462
0003a0 d9 7a ae 3e 3b 5e 42 3c 14 27 df 3b 73 c4 a6 bd
       0.340781 0.011863287 0.0068100784 -0.081429385
0003b0 a2 5e 68 3d b6 4b 1c be 08 47 d2 bd bd fd 01 3e
       0.056730874 -0.15263256 -0.102674544 0.1269445
0003c0 ca 06 20 bd 20 28 83 3d eb 39 c7 bd b7 94 d6 3d
       -0.039068975 0.064041376 -0.09727844 0.10477584
0003d0 96 86 c3 3d 97 62 53 bd 5c 73 d7 bc 9f 84 75 3e
       0.095471546 -0.051607694 -0.026300125 0.23976372
0003e0 e6 a1 01 3e 37 14 be 3d 15 d6 4c 3d 3a 90 32 be
       0.12659416 0.092811994 0.050008852 -0.1743783
0003f0 b3 10 6b bd 73 4e 92 bd 3a 2c f4 bd f0 0e 8e 3c
       -0.057388972 -0.07143869 -0.11922498 0.017341107

linear2.bias f4 [79]
000000 9d 27 29 bc 04 3e e9 3d 26 a9 90 3e d0 39 fc 3d
       -0.010324386 0.11388782 0.2825405 0.12315714
000010 6d c3 61 3c cf 9e a1 3c 0c 0a 06 3e ed 55 02 3e
       0.013779503 0.019729046 0.1308977 0.1272809
000020 47 d8 8e 3d a7 a2 31 3c 56 87 4d bb 57 24 4d bd
       0.069748454 0.010842002 -0.0031361184 -0.050083485
000030 7c 5d ee 3d 38 ed d8 3d c8 a2 d0 bd 5d 42 8d 3d
       0.116389245 0.10592121 -0.10187298 0.068974234
000040 87 42 d7 3c 09 0a 09 3e 72 f6 65 39 bb 6f 03 3e
       0.02627684 0.13382734 0.0002193095 0.1283559
000050 dd ee 5d bd 76 32 6f 3c 4a 8b c6 3d 62 de c1 b9
       -0.054182876 0.014599433 0.09694536 -0.00036977517
000060 eb 47 b3 3c 58 67 b1 3d fd b8 94 3c 74 42 41 bc
       0.02188488 0.086622894 0.018154616 -0.011795629
000070 c8 0e 93 3d c0 4e b7 bc ae df 91 3c 5e 56 c9 3d
       0.07180554 -0.022376418 0.017806854 0.09830926
000080 9e 4c 4c bc 22 55 d1 bd 2c 84 21 3c ff 15 26 bd
       -0.012469439 -0.10221316 0.009858172 -0.04054832
000090 16 1f 89 3a f3 b8 2f 3d b3 80 86 ba 94 b1 b9 bd
       0.0010461535 0.04290099 -0.0010261744 -0.090670735
0000a0 c9 d4 76 3d 3b cc 58 3c 99 9e c0 bd 5c 4f 5f 3b
       0.06026152 0.013232286 -0.0940525 0.0034074401
0000b0 99 c6 66 bc 6f 32 8f bd cd ef 18 3d 27 ba 91 3c
       -0.014085435 -0.06992041 0.037338067 0.01778896
0000c0 be 31 d1 3c 60 18 35 3d 2e ae 9f 3c 51 11 9b bd
       0.025536414 0.0442127 0.019492235 -0.07571662
0000d0 62 c1 02 bd d8 cf c3 bd 8c f9 5e bc 9b 4f ca 3c
       -0.031922705 -0.095611274 -0.013609301 0.024696162
0000e0 07 79 da bb 86 99 0a 3d a9 7f f4 bd f6 e8 5b bc
       -0.0066672596 0.033837818 -0.11938412 -0.013422241
0000f0 6e 57 96 bd f6 55 9c 3c 50 80 95 bd 17 40 ec 3c
       -0.07340895 0.019083958 -0.07299864 0.028839154
000100 80 15 3a 3c c3 39 69 3b f0 57 ac bd 09 c5 82 bd
       0.011357665 0.0035587407 -0.0841521 -0.06385238
000110 42 59 dd bd a7 05 5d 3d c8 3d 0a bd af e3 5d bd
       -0.1080804 0.05396047 -0.033750325 -0.054172214
000120 10 8a c7 3d 89 00 e8 bd 09 15 a7 bd dc a4 18 bb
       0.0974313 -0.11328227 -0.08158309 -0.0023291623
000130 ad b2 86 bd dc 12 7a bd 1d 18 f1 bc
       -0.065770485 -0.061053142 -0.029430443
