NLP & Language Understanding/my_model.pth (torch, 2664 bytes, 3 tensors)

embedding.weight f4 [1, 64]
-0.12432374 0.28419232 0.36985144 -0.060314573 -0.4108679 0.16938922 -0.19019398 0.17512657
0.25334275 -0.11967631 0.10934353 -0.3424158 -0.052785918 -0.011003991 -0.10128029 -0.39391303
0.22129963 0.18777707 -0.41559443 0.26702166 0.08140413 0.4685328 0.41498646 -0.26764652
-0.22235619 0.14462489 0.15623403 0.4114932 0.18649164 -0.44508666 -0.20973666 -0.34590727
0.032243997 0.06285406 0.29658517 -0.430725 -0.42284843 0.031180764 0.010509756 -0.4592017
0.09077812 -0.0647091 0.09296657 0.25276834 0.10734669 0.23426424 0.47540322 0.34676942
-0.28770187 0.16037758 0.042143494 0.29349458 -0.44406664 0.19308864 0.21876076 0.34183344
0.4506323 0.27010438 0.027150698 -0.26391226 -0.18832333 0.26654983 -0.29524484 0.15724656
00000000: 729d febd a881 913e 2b5d bd3e 6a0c 77bd
00000010: 475d d2be 5e74 2d3e 36c2 42be 6154 333e
00000020: 24b6 813e da18 f5bd 80ef df3d 2051 afbe
00000030: 0c36 58bd 154a 34bc 0a6c cfbd f8ae c9be
00000040: 5f9c 623e a248 403e cbc8 d4be 10b7 883e
00000050: 35b7 a63d 88e3 ef3e 1b79 d43e f708 89be
00000060: 57b1 63be 8c18 143e d0fb 1f3e 3daf d23e
00000070: aaf7 3e3e 66e2 e3be 35c5 56be c21a b1be
00000080: 4812 043d a1b9 803d 03da 973e fd87 dcbe
00000090: 977f d8be cd6e ff3c 1d31 2c3c 7c1c ebbe
000000a0: e1e9 b93d 3486 84bd 4265 be3d da6a 813e
000000b0: 95d8 db3d f7e2 6f3e 0d68 f33e c38b b13e
000000c0: a94d 93be 053a 243e a89e 2c3d ec44 963e
000000d0: b45c e3be 07b9 453e d202 603e cb04 af3e
000000e0: 47b9 e63e 1f4b 8a3e 246b de3c 821f 87be
000000f0: d5d7 40be 3879 883e 552a 97be 3e05 213e

fc.weight f4 [4, 64]
0.20820816 -0.18939118 -0.17030242 -0.08615218 -0.003978726 -0.25088763 0.1717377 -0.46713623
0.16457985 -0.34914875 0.40633658 -0.31097603 -0.20771553 0.10501996 -0.44765255 -0.25669625
-0.41327506 -0.10290127 0.20454143 0.41334727 -0.09523865 0.07939873 0.22380778 -0.33458275
-0.30870086 0.29398 0.34912413 0.22910342 0.4697938 0.28656685 -0.2334101 -0.3669399
0.07683048 -0.32862362 -0.40957478 -0.13784225 -0.37203643 0.15486434 0.037879396 0.3652369
0.2340683 0.17742929 -0.20714125 0.040957857 0.37564057 0.05515007 0.30851275 0.24663557
0.056089796 -0.118990324 -0.1385225 -0.037524186 0.33739847 0.068567425 -0.066803716 -0.32889792
0.2784446 0.20297883 0.0694157 0.34038237 -0.37502933 0.14335355 0.2232453 0.36365628
0.10802728 0.43347186 0.14805937 -0.4210225 -0.120229796 0.21635786 0.3941334 -0.21961161
0.3968818 0.21945873 -0.31106204 -0.024264647 -0.4612809 0.26090825 -0.46692833 -0.080785245
-0.2913895 0.06021211 -0.022590505 0.3746539 0.013494868 -0.03889096 -0.36683705 0.43513185
0.38216996 0.22235239 0.16742614 0.39682359 0.25485182 0.042236414 -0.17782548 -0.060792252
-0.42322057 -0.2264979 0.18779351 0.17366974 -0.19068849 0.1636468 -0.30186263 -0.08754555
-0.0077713835 -0.07250068 0.28260213 -0.09118978 0.45735544 0.2298742 0.13858712 0.12578566
-0.111643575 0.15715307 -0.19381669 0.3162685 0.22695737 0.12132963 -0.16382591 0.24367765
-0.021564223 0.14649096 -0.28434336 -0.30802566 -0.41005406 -0.20937443 0.23042911 -0.21149185
0.37525275 0.24103643 -0.0126275495 0.33871695 0.067130744 -0.3304338 -0.4488713 -0.08157319
0.48489073 0.015971212 0.48603165 -0.111338735 -0.39375234 -0.36779207 -0.24878815 -0.24515003
-0.027733758 0.41820192 0.095301986 -0.33633527 -0.3884882 0.14265352 0.09782971 0.07282502
0.1798134 0.2163943 0.087890826 0.009706416 0.1813376 0.32876042 -0.4169146 -0.19083107
0.16626604 0.42256504 0.28101346 -0.42383024 -0.27646267 0.35395926 -0.1706022 -0.32022342
-0.044741224 -0.49493346 0.43162614 0.2583365 -0.13788098 -0.3912696 0.4370655 -0.43436554
0.4678883 0.027775211 0.12065209 0.11122098 0.03523857 0.13863271 -0.2336327 0.29336435
-0.4020772 0.19359586 0.18511328 -0.13746226 0.35006618 0.12325095 0.24245937 -0.102840096
0.09695391 -0.35848784 0.01756769 0.3919987 0.4165554 0.07996977 -0.13124378 0.27825028
0.23643565 -0.25397593 0.41607395 -0.17015862 0.044800922 0.36265445 -0.37049824 0.00012787529
-0.10038755 -0.31402275 -0.042219035 -0.25118217 0.22410154 0.026433377 0.18903485 -0.28549063
0.22187416 0.22806573 0.30389643 0.37498814 -0.15802695 -0.06811077 0.1728714 0.4465253
-0.15529181 -0.19205536 0.100613795 -0.3051007 0.10332502 -0.065903716 -0.37958318 -0.10209842
0.2100513 -0.3866555 -0.17836058 0.2598192 -0.38043004 -0.03748625 0.31055295 0.13026486
0.4575937 -0.21665157 -0.45682815 0.3227487 -0.2157709 -0.124040745 -0.03105132 -0.23872595
0.34445828 0.25348216 -0.04392219 -0.4860857 0.021690898 0.36951327 0.37705034 -0.11901571
00000000: 8534 553e c3ef 41be c263 2ebe 8e70 b0bd
00000010: f95f 82bb 5874 80be 02dc 2f3e 7b2c efbe
00000020: 9f87 283e a0c3 b2be 590b d03e 4038 9fbe
00000030: 61b3 54be b414 d73d b732 e5be b16d 83be
00000040: ca98 d3be e7bd d2bd 4f73 513e 41a2 d33e
00000050: 7b0c c3bd cd9b a23d de2d 653e 6e4e abbe
00000060: 0a0e 9ebe 8c84 963e 66c0 b23e 169a 6a3e
00000070: d088 f03e e4b8 923e 0f03 6fbe 8cdf bbbe
00000080: 4c59 9d3d 5b41 a8be c9b3 d1be 8526 0dbe
00000090: 8f7b bebe c294 1e3e 6d27 1b3d 5500 bb3e
000000a0: 9aaf 6f3e 06b0 353e d61c 54be 6dc3 273d
000000b0: f653 c03e 0ae5 613d 62f5 9d3e 098e 7c3e
000000c0: 6abe 653d 33b1 f3bd d8d8 0dbe f6b2 19bd
000000d0: 7ebf ac3e 146d 8c3d 63d0 88bd 4f65 a8be
000000e0: 4a90 8e3e afd9 4f3e d229 8e3d 9946 ae3e
000000f0: d803 c0be 46cb 123e 6a9a 643e 2831 ba3e
00000100: 683d dd3d 06f0 dd3e e09c 173e 4390 d7be
00000110: 0a3b f6bd ea8c 5d3e dacb c93e dee1 60be
00000120: 1734 cb3e cab9 603e 8643 9fbe a7c6 c6bc
00000130: 032d ecbe c495 853e 3b11 efbe bc72 a5bd
00000140: 0131 95be f9a0 763d b90f b9bc a3d2 bf3e
00000150: 9419 5d3c 214c 1fbd 11d2 bbbe 9ac9 de3e
00000160: c8ab c33e 58b0 633e c271 2b3e 762c cb3e
00000170: f07b 823e 1700 2d3d e217 36be 4c01 79bd
00000180: 5eb0 d8be 11ef 67be f14c 403e 7bd6 313e
00000190: d843 43be 0793 273e bd8d 9abe 154b b3bd
000001a0: 17a7 febb 3d7b 94bd 3ab1 903e b5c1 babd
000001b0: 7e2a ea3e 2464 6b3e c8e9 0d3e f5cd 003e
000001c0: 63a5 e4bd bcec 203e e277 46be f2ed a13e
000001d0: 8367 683e ab7b f83d fbc1 27be a286 793e
000001e0: 74a7 b0bc ba01 163e 7495 91be 8ab5 9dbe
000001f0: 9bf2 d1be 4066 56be 9cf5 6b3e 5291 58be
00000200: 2121 c03e 41d2 763e c8e3 4ebc 4f6c ad3e
00000210: d87b 893d 9e2e a9be 76d2 e5be d80f a7bd
00000220: 9943 f83e 0fd6 823c 24d9 f83e 9005 e4bd
00000230: e899 c9be 3e4f bcbe 52c2 7ebe 9c08 7bbe
00000240: e831 e3bc 901e d63e b02d c33d 2334 acbe
00000250: ede7 c6be c413 123e f15a c83d 4925 953d
00000260: 0121 383e 7896 5d3e 1b00 b43d a907 1f3c
00000270: 90b0 393e 4953 a83e d575 d5be 3869 43be
00000280: a541 2a3e 725a d83e ffe0 8f3e 4700 d9be
00000290: 848c 8dbe 263a b53e 58b2 2ebe 53f4 a3be
000002a0: 9342 37bd eb67 fdbe 1afe dc3e af44 843e
000002b0: ac30 0dbe 7d54 c8be 0dc7 df3e 2965 debe
000002c0: 0e8f ef3e d788 e33c 7118 f73d d3c7 e33d
000002d0: 5256 103d bcf5 0d3e 693d 6fbe da33 963e
000002e0: 10dd cdbe fe3d 463e 568e 3d3e e8c2 0cbe
000002f0: e03b b33e fe6a fc3d 4547 783e d49d d2bd
00000300: c68f c63d b88b b7be 1eea 8f3c 0eb4 c83e
00000310: c046 d53e 31c7 a33d c564 06be d276 8e3e
00000320: 301c 723e 2209 82be a507 d53e 103e 2ebe
00000330: 2c81 373d d8ad b93e f2b1 bdbe 4316 0639
00000340: fd97 cdbd 97c7 a0be deed 2cbd f39a 80be
00000350: e07a 653e cf8a d83c 5a92 413e d42b 92be
00000360: fb32 633e 108a 693e 5098 9b3e 72fe bf3e
00000370: d1d1 21be a97d 8bbd 3305 313e f79e e43e
00000380: d104 1fbe 29aa 44be 9b0e ce3d 2936 9cbe
00000390: 119c d33d 87f8 86bd ba58 c2be fa18 d1bd
000003a0: b017 573e b6f7 c5be 28a4 36be 0607 853e
000003b0: bac7 c2be 2f8b 19bd cc00 9f3e 2764 053e
000003c0: b949 ea3e e9d9 5dbe 61e5 e9be 513f a53e
000003d0: 0cf3 5cbe 1309 febd 565f febc 9374 74be
000003e0: d65c b03e 6ac8 813e c1e7 33bd 3ae0 f8be
000003f0: 1cb1 b13c d830 bd3e be0c c13e 82be f3bd

fc.bias f4 [4]
-0.0040894616 0.0019382191 -0.003982434 0.0061339606
00000000: e400 86bb d70b fe3a 147f 82bb 64ff c83b
